model/sound-model.tflite (tflite, 123432 bytes, 16 tensors)

sequential_3/dense_7/BiasAdd/ReadVariableOp f4 [10]
000000 ea d4 15 bf 43 f3 42 bc 0d 94 cd bc 26 53 d1 be
       -0.58528006 -0.011898818 -0.02509501 -0.4088375
000010 bd 41 3b 3e 1e a0 38 3e ce c0 ad bd 5f 67 05 be
       0.18286796 0.1802983 -0.0848404 -0.13027714
000020 97 e6 8a 3d 1d f8 1b 3f
       0.06782263 0.60925466

sequential_3/dense_6/BiasAdd/ReadVariableOp f4 [32]
000000 47 13 c6 3e 63 a1 d7 3d 7d c8 36 3e 3a 60 cf 3d
       0.38686582 0.10528829 0.17849918 0.10125776
000010 b3 17 5a 3e 3f a2 18 3e 4d 78 23 3d ab 39 d7 bc
       0.21298103 0.14905642 0.03990965 -0.026272615
000020 82 86 2c 3e 1d 0e f1 3d f9 a9 0c 3f b9 c4 8c 3e
       0.16848186 0.1177027 0.5494686 0.27493837
000030 ec 92 81 3e 19 c7 07 3e cb 64 a1 3d 92 41 09 3f
       0.25307405 0.13259543 0.07880553 0.5361568
000040 2d a8 6d 3e c4 17 bd 3e d3 4b a3 3e a3 47 6a 3e
       0.23208685 0.36932194 0.31893787 0.2287889
000050 53 f6 56 3e b6 3f d0 39 dd 71 c3 bd 2e 9e 82 bd
       0.20992403 0.0003972032 -0.09543202 -0.06377827
000060 ac 98 17 3f 2e cf d5 bc c6 7f 78 3e 04 5d 86 3e
       0.59217334 -0.026099768 0.24267492 0.2624284
000070 0e f1 24 3e 71 b6 7d 3e dc 08 51 3e 00 d2 d0 3e
       0.1610758 0.24776627 0.20413536 0.40785217

sequential_3/conv2d_9/BiasAdd/ReadVariableOp f4 [16]
000000 5c 52 21 bf 6c 64 8b 3b 0c 7c 7c 3c c8 41 14 3f
       -0.63016295 0.0042539146 0.015410434 0.57912874
000010 49 c0 77 bd 7b c9 6a 3e d8 69 bb 3e a1 bc ae be
       -0.06048611 0.22928421 0.3660419 -0.34128287
000020 0a 9d 1f 3f a7 f5 9b 3e 2c f6 37 3e da a7 04 be
       0.62349 0.30460855 0.17965001 -0.12954655
000030 67 a7 b4 be 9a d8 ba 3e db 71 8d be 5d f4 86 3e
       -0.35283968 0.3649338 -0.27625927 0.2635831

sequential_3/conv2d_11/BiasAdd/ReadVariableOp f4 [32]
000000 ea 8c d3 3d df 25 84 bd 05 b9 1a 3e 43 ba 38 3d
       0.103296116 -0.06452536 0.15109642 0.045099508
000010 c8 78 3f 3c cb 6c 06 bb f2 7d 01 be 91 fc b9 3d
       0.011686511 -0.0020511623 -0.126457 0.09081376
000020 0b 42 a7 3d 4f f8 9e 3d 9b 84 17 3e b4 99 70 3e
       0.081668936 0.07762205 0.14796679 0.23496133
000030 99 8d 79 bc c1 68 cb bd b5 34 ef bd 1c 18 b0 bd
       -0.015231513 -0.099320896 -0.11679975 -0.085983485
000040 2f 94 b3 3d 30 7f eb bd 81 71 00 3d b2 7d dc 3d
       0.08768498 -0.114988685 0.031358246 0.10766162
000050 37 87 98 3d d2 57 cd bd d0 7d 26 be 12 27 08 3e
       0.07447665 -0.10026516 -0.16258931 0.13296154
000060 e8 c4 eb 3d eb 5a 5a 3d f3 45 77 be ec e3 1d 3e
       0.11512166 0.053309362 -0.24147777 0.15418977
000070 58 4c 29 be 73 b7 0b 3e a0 2a 5b bd 24 46 ad 3d
       -0.16533029 0.13644199 -0.053507447 0.08460644

sequential_3/conv2d_10/BiasAdd/ReadVariableOp f4 [64]
000000 d5 dd 82 bd c8 75 a9 bd 66 1c 94 be 1c d5 d4 3b
       -0.06389967 -0.08274418 -0.28927916 0.006495131
000010 4e d5 a0 3d c3 a3 ca bd 2d 86 01 bd b7 ce de bd
       0.07853185 -0.09894516 -0.0316221 -0.108792715
000020 ac 3e 30 be 79 7a 8f be da 51 dc bb 11 de 50 be
       -0.17211407 -0.28023127 -0.0067236247 -0.20397212
000030 7b a8 27 bd a0 46 08 bd 06 63 3c be c3 47 cc 3d
       -0.04093216 -0.03327048 -0.1839715 0.09974625
000040 9e dc 1d be 2b c9 36 3d b0 10 35 be 28 78 40 bd
       -0.1541619 0.044625442 -0.17682147 -0.04698959
000050 ee 83 2c be 35 d9 9a be 39 6b 3c be c3 4f a7 bd
       -0.16847202 -0.3024384 -0.18400277 -0.0816951
000060 66 b8 2c be d0 3b a8 3d ed bc 98 bd 7d 03 ed bd
       -0.16867217 0.08214533 -0.0745791 -0.11572931
000070 4f b5 a4 3d 47 c5 19 be f7 34 d4 bd f6 74 50 be
       0.08042394 -0.15016662 -0.10361665 -0.20357117
000080 67 f6 1d 3d da 34 1b be 62 3a 2b be 9b ef 1f be
       0.038565066 -0.1515688 -0.1672149 -0.15618746
000090 31 16 ea bd 06 ab e7 bc 93 49 46 be 52 d3 4b bc
       -0.11430014 -0.028279793 -0.19364004 -0.012440519
0000a0 60 eb 7c bd 73 f9 e4 bd 34 d7 c3 bd cb dc 05 bd
       -0.06174791 -0.11180391 -0.09562531 -0.032681268
0000b0 de 2e cf bd 4e df f0 bd 79 8f d2 bd b8 11 27 be
       -0.10116361 -0.11761342 -0.102812715 -0.16315353
0000c0 46 ba 1e 3d b7 e2 2a be 1d b6 00 3c 1f 54 d5 3b
       0.038751863 -0.16688047 0.007855919 0.006510272
0000d0 58 95 dc bd 4c 87 1f be 36 e2 47 be 86 20 72 bc
       -0.107706726 -0.15578955 -0.19519886 -0.014778262
0000e0 bd 3d d4 bd dc 30 7e be bc 78 99 3d 93 97 04 be
       -0.10363338 -0.24823326 0.074937314 -0.12948446
0000f0 cc f3 e7 3d 45 11 fb bd 5c 38 a0 3d fe 7e f0 bd
       0.113257974 -0.12259153 0.0782325 -0.11742972

sequential_3/batch_normalization_9/FusedBatchNormV3 f4 [16]
000000 6a 8f 32 3f b6 32 45 3d 2b 38 00 3e 84 3e cd 3e
       0.6975008 0.048144065 0.12521426 0.40086758
000010 6d 50 00 3e 6c 40 f1 3d 71 18 06 3d 60 b0 a4 3e
       0.1253068 0.117798656 0.032738153 0.32165813
000020 db 9e 97 3d aa 78 1a 3f 6d 6e 0a 3d 45 3f 3f 3c
       0.07403346 0.6034037 0.033796716 0.0116727995
000030 96 96 a9 3d eb ac 51 3e 4c 98 c5 3d 33 03 1a 3e
       0.08280675 0.20476119 0.09648189 0.15040283

sequential_3/batch_normalization_9/FusedBatchNormV31 f4 [16]
000000 96 a4 a4 be fc 32 0c bf be c6 47 be db d8 0c bf
       -0.3215682 -0.54765296 -0.19509408 -0.55018395
000010 61 97 91 be 52 bd bd be 99 dc 8f be 0b e7 cd be
       -0.28435805 -0.37058502 -0.2809799 -0.40215334
000020 51 ec 13 be b1 71 f8 be b4 a5 8e be 24 f9 ec be
       -0.14445616 -0.4852424 -0.27860796 -0.4628383
000030 2e 7b 6e be 46 1e 31 be 68 21 66 bd 66 af 00 be
       -0.23289177 -0.17296705 -0.056184202 -0.12566909

sequential_3/batch_normalization_10/FusedBatchNormV3 f4 [64]
000000 0e f5 7d 40 60 9d 78 3f 94 d2 1c 40 b5 dd 87 3f
       3.968082 0.97115135 2.4503527 1.0614535
000010 3c 0b c3 3f 12 22 f4 3f 64 49 fd 3f c6 c4 c6 40
       1.5237803 1.9072897 1.9788022 6.21152
000020 22 14 8f 40 83 d4 7a 40 34 85 00 40 62 40 c7 40
       4.4712076 3.9192207 2.00813 6.226609
000030 43 30 e3 3f 58 98 1c 3f 3b 30 91 3f 52 9d 29 3f
       1.7749103 0.6116996 1.1342844 0.66255677
000040 92 25 0f 41 ac f4 ef 3f c9 a7 7a 40 a7 b8 75 3f
       8.946672 1.8746543 3.9164908 0.9598488
000050 01 6e 9b 40 59 c2 bc 3f ca a3 97 40 be b3 7c 40
       4.857178 1.474681 4.738744 3.9484706
000060 08 b8 61 3f ef 6d 03 3f e6 73 b9 40 c9 28 d5 3f
       0.88171434 0.5133962 5.7953978 1.6653072
000070 6a 12 c3 3f 04 a4 99 40 33 85 b5 40 ae c1 d3 3f
       1.5239995 4.8012714 5.6725097 1.6543481
000080 44 97 c2 3f 4a 31 9b 3f 3c 61 3e 40 a1 7e fd 3f
       1.5202413 1.2124417 2.9746847 1.9804269
000090 e4 5f a5 3f f6 60 00 40 b4 25 72 40 93 8b f6 3f
       1.2919888 2.005918 3.7835512 1.9261345
0000a0 41 c8 92 3f 3b 48 c7 40 65 6e 2b 40 e3 c4 21 40
       1.1467363 6.227567 2.678613 2.527642
0000b0 b5 18 8a 40 72 7b 53 40 5d f3 b6 3f 68 74 9d 3f
       4.315516 3.3044095 1.4293019 1.2301149
0000c0 8e 1d c4 3f 41 65 de 40 22 3c bd 3f 36 9c e2 3f
       1.5321519 6.94986 1.4783976 1.7703922
0000d0 42 43 86 3f 00 db c4 40 4a b2 16 40 0e d4 ad 3f
       1.0489275 6.1517334 2.354632 1.3580339
0000e0 0f 71 9c 3f e4 25 50 40 c5 21 71 3f 33 80 80 3f
       1.2222003 3.2523127 0.94192153 1.0039123
0000f0 49 ce 24 3f c8 c5 b8 3f 3a ab 34 3f 5e 3f 07 40
       0.64377266 1.4435358 0.7057377 2.1132426

sequential_3/batch_normalization_10/FusedBatchNormV31 f4 [64]
000000 54 28 9a be 5c 27 f1 be 0e f9 f1 bd 30 cc 5a bf
       -0.30108893 -0.4710034 -0.118150815 -0.85467815
000010 6c b5 77 bf 8c 73 b1 be 92 27 87 be 00 37 32 bb
       -0.967612 -0.34658468 -0.26397377 -0.0027193427
000020 a4 8e 37 bd f0 d0 b9 be 94 cb 57 bf 84 72 8b be
       -0.044813767 -0.3629222 -0.8429501 -0.27235806
000030 b4 1f 95 be 5e 55 23 bf a9 be ec be ff 2c 5c bf
       -0.2912575 -0.63802135 -0.46239212 -0.8600616
000040 0e 5d 18 3d 5d d6 b6 be 10 5b 9b 3c 56 4f ab be
       0.03719812 -0.3571042 0.01896432 -0.33458966
000050 28 25 a8 bc 8f b3 8b be 90 b5 3b be 1f fe e1 bd
       -0.02052553 -0.2728543 -0.1833098 -0.11034798
000060 42 34 b6 be e1 b6 41 bf 7d 34 1d be ba 12 df be
       -0.35586745 -0.75669676 -0.15352054 -0.43568975
000070 ec 95 c9 be 88 9d fc 3c 4d d0 98 be a4 16 d1 be
       -0.39372194 0.030836836 -0.2984642 -0.40837586
000080 23 1e 13 bf 60 23 01 bf 77 14 9a be 4e f9 28 be
       -0.5746786 -0.504446 -0.30093738 -0.16501352
000090 9c 1c b2 be 84 59 2e bf e1 e9 0f be 48 67 f3 be
       -0.34787452 -0.6810534 -0.14054061 -0.47539735
0000a0 06 5a 69 be 22 46 45 be 10 35 41 bd 28 f6 a3 be
       -0.22788247 -0.19265035 -0.047169745 -0.3202374
0000b0 f8 e2 88 bd c7 0a 90 be 48 ea 89 bd e2 8e 6f be
       -0.06683916 -0.28133222 -0.06734139 -0.23394349
0000c0 fd f5 36 bf 87 9c 19 be a7 d9 5e bf 68 2a 37 bf
       -0.714691 -0.15001117 -0.8705086 -0.7154908
0000d0 d4 39 81 be 68 d2 6a bd 79 7f da bd 88 c0 3b bf
       -0.25239432 -0.057329565 -0.10668845 -0.73340654
0000e0 6a a4 6d be 0e 32 ca bd bf 97 36 bf 15 d1 09 bf
       -0.2320725 -0.098728284 -0.71325296 -0.5383466
0000f0 24 c4 7d bf 59 da 20 be 50 e2 30 bf 74 81 00 be
       -0.9912741 -0.15708293 -0.69095325 -0.12549382

sequential_3/batch_normalization_11/FusedBatchNormV3 f4 [32]
000000 49 6c 5f 3f b8 0b b5 3f 0a d1 2b 3f 5a e0 30 3f
       0.87274605 1.4144201 0.67115843 0.69092333
000010 f2 30 90 3f 4c be dd 3f f0 e0 fe 3f 05 fd 18 3f
       1.1264937 1.7323699 1.9912395 0.5976108
000020 5c 1b 47 3f e5 bf 8a 3f 54 c4 57 3f 56 11 5d 3f
       0.7777612 1.0839812 0.8428395 0.8635458
000030 c6 d9 61 3f ac 75 5d 40 86 2e 0c 40 27 27 50 40
       0.8822292 3.4603071 2.1903396 3.2523897
000040 1e 74 69 3f ba b3 0e 40 9c cc 37 3f e9 75 32 3f
       0.91192806 2.2297196 0.71796584 0.69711167
000050 ff 3c 33 3f 1a 48 60 40 4b 3c 8d 40 9c 34 5c 3f
       0.7001495 3.5044007 4.41361 0.86017776
000060 71 b2 52 3f 82 93 6b 3f ab 9d 33 40 72 42 3a 3f
       0.8230353 0.92021954 2.8064983 0.7275764
000070 57 fc 71 40 9c 4c 65 3f 78 3d 14 40 a4 5d 30 3f
       3.7810266 0.8957002 2.3162518 0.68892884

sequential_3/batch_normalization_11/FusedBatchNormV31 f4 [32]
000000 04 8c 07 c0 1e b1 81 be 12 c1 0b c0 b0 bd e5 bf
       -2.1179209 -0.25330442 -2.183659 -1.7948513
000010 36 01 03 bf 34 eb 5d be c7 57 b5 be 29 09 03 c0
       -0.5117372 -0.21671754 -0.3541853 -2.047434
000020 1b a9 04 c0 92 cd ff bf 09 14 54 c0 26 63 49 c0
       -2.0728214 -1.998461 -3.3137228 -3.1466765
000030 76 a9 c1 bf f4 c4 18 be 53 ce 27 be a0 3d 89 be
       -1.512984 -0.14918882 -0.163873 -0.2680483
000040 b5 34 2b c0 55 fe 9e be 54 e4 b9 bf 1d dc 22 c0
       -2.675092 -0.31053415 -1.4522805 -2.5446846
000050 bd 0b 2f c0 20 e2 36 be 67 b4 a0 be ad 4c 0b c0
       -2.7350914 -0.17859697 -0.31387636 -2.176555
000060 75 6d 28 c0 9b 0b 03 c0 1d 6f 4a be 32 51 2a c0
       -2.6316807 -2.0475833 -0.19768949 -2.6612058
000070 c0 9b 95 be b4 1d 9a bf 6e 09 2f bf 2d 08 07 c0
       -0.2922039 -1.2040315 -0.68373764 -2.109874

sequential_3/dense_6/MatMul f4 [32, 32]
000000 0a 6f 1b bf 20 12 aa 3d 31 e1 14 bf 36 b7 42 3e
       -0.6071631 0.08304238 -0.58156115 0.19015202
000010 dc d5 be bd 9c 76 a9 be fd a4 fd 3e 72 a6 02 bd
       -0.09318134 -0.33098304 0.4953994 -0.031897016
000020 65 ce b4 3e c7 b9 b9 3c 4c e6 5e 3e 02 af 93 3d
       0.35313717 0.022671593 0.21767539 0.072111145
000030 75 83 1b 3e 4f de 2d bd c3 1f 4b be f2 33 a6 be
       0.15186866 -0.042448338 -0.19836335 -0.32461506
000040 4b 11 29 3e fe 3d 20 3f 30 c2 83 be c6 18 89 3e
       0.16510503 0.6259459 -0.2573409 0.26776713
000050 c8 b7 83 be c4 4d 8a be d2 2a 8c 3e a6 8e 27 3e
       -0.2572615 -0.27012455 0.2737642 0.1636301
000060 a4 a6 e2 3d 9c e5 2e be ad 4c e7 3d 5a 6d 87 3e
       0.110669404 -0.17079777 0.112939216 0.26450616
000070 0a 29 a5 be ee 05 35 bd a5 bb af bd 4e b4 0d bf
       -0.32257873 -0.044195108 -0.08580712 -0.5535325
000080 40 ea 32 3f 12 04 87 bf 19 18 81 3e 6c 37 70 ba
       0.6988869 -1.0548117 0.25213698 -0.0009163532
000090 89 a4 45 be 51 08 70 bd a4 90 9d bd 34 bb 9d 3d
       -0.19301046 -0.05860168 -0.07693604 0.07701722
0000a0 14 2b 79 bd fe 1f e4 3d c3 5a 83 be 4d fa d2 3e
       -0.060832098 0.111389145 -0.25655183 0.4120659
0000b0 7b c0 23 3e 37 03 d4 3c 05 81 c5 3d fc ae 20 3f
       0.15991394 0.02588044 0.09643749 0.62767005
0000c0 71 0c 74 be 2b dc b7 be ba d0 cb be 72 fa 28 bf
       -0.23832871 -0.35910162 -0.39807683 -0.6600715
0000d0 3c 95 2d 3e 6f f8 a5 bd b6 8a a8 bd a3 cb 6f 3d
       0.1695146 -0.081040256 -0.08229582 0.058543812
0000e0 b6 f5 4d 3e 12 e2 96 3e 20 4a 17 be e5 0f 06 bf
       0.20113263 0.29469353 -0.1477437 -0.52368003
0000f0 96 0e fe be 7e c5 12 be 02 8c a1 3e 1b c6 f7 3e
       -0.49620503 -0.1433315 0.3155213 0.4839333
000100 57 f2 be 3e 26 57 01 be 6f c4 af 3c 72 15 e2 bd
       0.37294266 -0.126309 0.021455972 -0.110392466
000110 58 d9 98 3e a0 99 5e 3d 51 97 6d 3d ad 5c 9b 3e
       0.2985332 0.054345727 0.058005635 0.30344144
000120 6e 23 c5 3c 07 8b 04 3f 24 59 96 be f0 3b b7 3e
       0.024064746 0.5177464 -0.29364884 0.35787916
000130 67 f9 6f 3e ad df 36 3d 60 7d a8 be 0d ec 12 3f
       0.23434983 0.044646908 -0.32908154 0.57391435
000140 d7 df 27 be 8b 1d 01 bf 8c 93 96 be 4a b0 04 bf
       -0.16393982 -0.50435704 -0.29409444 -0.51831496
000150 3f 1d 85 3d 66 26 77 bd 59 f7 fa bd 4f 4d d0 be
       0.06499719 -0.060339354 -0.12254209 -0.40683982
000160 cd 01 9d bc c7 91 d0 3e 2f f2 4f be 10 85 0a bf
       -0.019165898 0.4073622 -0.2030723 -0.5410929
000170 cc 99 b6 be ca 74 3a be 58 6f 94 3d 45 38 c9 3e
       -0.35664213 -0.18208614 0.072478 0.39300743
000180 e6 d9 1d bf 16 7a 56 3e 51 48 0c 3f c5 51 1f bd
       -0.6166061 0.2094501 0.54797846 -0.03889634
000190 a5 45 23 be c5 9c 0f 3f f1 f8 23 3d b6 d2 ef 3d
       -0.15944536 0.56098586 0.04003233 0.11710112
0001a0 97 4d e3 bd 4b 64 e0 be 33 31 6e be 71 8a 79 bf
       -0.110987835 -0.43826517 -0.23260956 -0.9747687
0001b0 d2 58 b7 be d2 08 78 bd 89 f3 8a 3e 42 19 b6 be
       -0.35809952 -0.060555287 0.27138928 -0.35566145
0001c0 ca 5a 80 be dd 46 17 bd 0c ee 9d 3e 20 d6 af 3e
       -0.25069267 -0.036932815 0.30845678 0.34343052
0001d0 2f 72 2c be 0e 53 da 3e 73 4a 6b 3e 6a 42 37 3e
       -0.16840433 0.4264149 0.22977619 0.17896429
0001e0 15 bf de be fb 0b 98 bb ea b1 dc 3e 02 bc 82 3e
       -0.4350516 -0.0046401 0.43104488 0.25534064
0001f0 5b 91 f7 3e cb 98 d2 bd ac f4 c3 be 93 0f f7 bd
       0.48353085 -0.10283049 -0.38272607 -0.120635174
000200 1a c9 67 3e 8a 32 63 bc 87 e2 db bd ef c7 e5 3e
       0.22635308 -0.01386703 -0.10736566 0.448791
000210 02 a1 07 bf 6f 03 af 3d 6e c9 ea bd 26 a9 2c 3e
       -0.52980053 0.08545577 -0.11464201 0.168614
000220 ae 81 69 be 96 4e 43 be 95 11 43 3e db 2a a5 3d
       -0.22803375 -0.19072947 0.19049676 0.08064815
000230 81 90 00 3f 1b b1 c9 bd c5 92 06 3f 27 fc f5 be
       0.50220495 -0.09848233 0.525677 -0.4804394
000240 98 4c 68 3e 53 91 3d be 84 17 c2 be 06 f1 3f be
       0.22685468 -0.18512468 -0.37908566 -0.18744287
000250 c8 a2 8d be 59 78 3d be 2b 39 fa be 77 cd 97 be
       -0.27663255 -0.1850294 -0.4887174 -0.29648945
000260 36 e0 89 3d 41 b8 33 3e ea 54 36 3e cf bc 2c be
       0.06732218 0.17550756 0.1780583 -0.168689
000270 4b d5 73 3d 52 70 d7 bd 74 c2 ad 3e 4d ac 87 3e
       0.059529584 -0.1051947 0.33937418 0.26498643
000280 83 a8 78 be 96 4d 36 3e 9b 55 8d be ff ca b6 be
       -0.24283032 0.17803034 -0.27604374 -0.3570175
000290 6e 8f fc 3a 16 68 ec be e6 5a d9 3d 92 b6 7d be
       0.001926882 -0.4617316 0.106130406 -0.24776676
0002a0 ca 13 f6 bd f9 53 31 3e d4 9d e1 3e cf ab ca 3d
       -0.12015493 0.1731719 0.44065726 0.09896051
0002b0 28 09 90 3e 83 47 3a 3e ef 75 cb 3e 71 2f 56 3d
       0.28131986 0.18191342 0.39738414 0.052291337
0002c0 c5 a8 aa 3c a6 7f 44 be c2 1b e2 3e e6 d3 6c 3c
       0.020832429 -0.19189319 0.44161803 0.014454817
0002d0 77 85 52 3f e3 33 ef bd 23 f1 b3 bd 7e 00 b3 3e
       0.822349 -0.116798185 -0.087862276 0.34961313
0002e0 60 a2 82 3f cc e4 a2 be ff 08 d7 3b 19 8f 5d 3d
       1.0205803 -0.31815183 0.0065623517 0.054091547
0002f0 de d2 22 be 0f 47 c1 be ec 64 ac bd 94 07 c2 be
       -0.15900752 -0.37749526 -0.08417687 -0.37896407
000300 b9 ca d5 bd ef 40 04 3e da 61 a4 3e 95 4c b9 3e
       -0.10439057 0.12915395 0.32105905 0.3619124
000310 b0 a3 14 bf 07 a2 91 be 19 6d a8 be d0 a6 42 3e
       -0.5806227 -0.2844393 -0.32895735 0.19008946
000320 85 d1 f6 3e 5b 3b fb 3d 20 ce 93 3e ce c8 53 be
       0.48206726 0.122671805 0.28868198 -0.2068207
000330 87 64 c7 3e 64 6a bc be f4 aa 1d 3f fb 04 70 be
       0.38943884 -0.3679992 0.6158898 -0.234394
000340 34 31 19 3f 69 dd 97 bc a4 64 23 be 99 69 f9 3d
       0.59840703 -0.018538194 -0.1595636 0.12178344
000350 8a 10 0a be 61 89 31 bf d8 20 98 be 18 e6 92 be
       -0.13482872 -0.6935025 -0.29712558 -0.28691173
000360 52 34 90 bd 1d 3e 28 3d 2b 31 00 3f d5 d4 de 3e
       -0.07041229 0.04107486 0.50075024 0.43521753
000370 b7 43 05 3f cc af 29 be fb 59 84 be 0a ee 0c bf
       0.5205645 -0.16570967 -0.258499 -0.5505072
000380 ec 2a 4f 3e e0 11 75 be 5b 4b 04 3e 9b 87 f2 bd
       0.20231217 -0.239326 0.12919371 -0.11842271
000390 51 c6 2b be 57 57 9a 3a 5c aa aa bd 9c 6d d5 be
       -0.1677487 0.0011775297 -0.08333275 -0.41685188
0003a0 f2 fe 21 bf b3 f2 52 be a7 0e b1 be 91 9e 18 3f
       -0.6327964 -0.20600395 -0.3458149 0.59616953
0003b0 b7 cc 53 be 3a e9 4c be 45 b5 88 be 42 19 7a be
       -0.20683561 -0.20010844 -0.26700798 -0.24423698
0003c0 7e 79 61 be 35 64 de bd 98 b7 cc be 15 04 99 be
       -0.22019002 -0.10858957 -0.3998382 -0.29885927
0003d0 b4 da 76 3e fa 22 1b 3d 82 34 77 3e c4 6b 82 3e
       0.24106866 0.037875153 0.24141124 0.25472844
0003e0 c6 c0 86 3e 86 61 45 bf 2d a3 f7 bd 00 87 0d bf
       0.2631895 -0.77101934 -0.1209167 -0.5528412
0003f0 5f 26 3c 3e ea 02 02 3f ee 26 0a 3f ab fc 73 be
       0.18374012 0.50785697 0.5396565 -0.23826854

sequential_3/dense_7/MatMul f4 [10, 32]
000000 57 c1 0e bf ee 3e 51 bf 6f a2 14 bf 62 95 1a 3f
       -0.55763763 -0.8173665 -0.58060354 0.6038419
000010 92 9e d3 3e ab cb a4 be 48 4e de 3e cf 5a d4 be
       0.41331917 -0.32186636 0.434191 -0.4147553
000020 70 aa ca be da 99 55 3e 0b 10 f2 3e d7 38 22 bf
       -0.39583158 0.20859471 0.47277865 -0.6336798
000030 96 6d 6e 3e af 93 d9 3e 89 8d 0a bf f9 34 f5 bd
       0.23283991 0.42495486 -0.54122216 -0.11972994
000040 43 fd 5e 3e 1a 64 42 bc 29 c6 54 3e b6 0e 0b bf
       0.21776299 -0.011864686 0.20778717 -0.5431932
000050 a0 3d 0d bf f5 94 1f bb 3c 41 fe be c1 4a 01 3f
       -0.5517216 -0.002435026 -0.49659145 0.5050469
000060 70 4e 32 bf b2 84 35 bf ce 27 10 bf c0 81 90 3e
       -0.69650936 -0.709056 -0.5631074 0.2822399
000070 c2 a6 f3 3e 10 9e df 3e 1c 5e 52 be 43 ff 2f 3e
       0.47588164 0.4367528 -0.20543712 0.17187218
000080 29 94 3f 3f 25 7a fd be c2 d6 54 bd 97 48 06 bc
       0.7483545 -0.4950725 -0.05196262 -0.008196018
000090 1e eb 14 3e b9 92 f7 be c3 96 07 bf 72 5e 29 3f
       0.14542815 -0.48354128 -0.5296442 0.6615974
0000a0 3c 0e ba be 7c 96 25 3d d6 9d 22 3f 93 97 05 bf
       -0.36338985 0.040426716 0.6352209 -0.5218441
0000b0 77 b4 a3 be 1b c3 06 bf fd f8 4e bf f6 f4 16 3f
       -0.3197362 -0.5264146 -0.80848676 0.5896753
0000c0 ad 80 0d bf b2 be 47 bf 6a 35 3a 3f 05 5b 4b be
       -0.5527447 -0.7802535 0.72737753 -0.1985894
0000d0 79 e2 c0 be 2f 80 bf be 31 2b 48 3f 28 93 2e be
       -0.37672785 -0.37402484 0.78190905 -0.17048323
0000e0 b1 bf 00 3f 00 4b 98 be 4e 91 ae be d3 3b 1b bf
       0.502925 -0.2974472 -0.34095234 -0.6063816
0000f0 fc 4e cc be c7 10 2c bf e2 ee 0c bf 6c 2f ff be
       -0.3990401 -0.672131 -0.55052006 -0.49840868
000100 77 a3 ff 3e b0 d2 d3 be 94 62 33 bf 65 2b bf be
       0.499294 -0.4137168 -0.70072293 -0.37337795
000110 c6 94 8f be f1 0a e1 3e 68 2b 56 be ed a8 ca be
       -0.28043193 0.4395366 -0.20914996 -0.39582005
000120 18 bf 2f 3f 06 52 31 3f 7e cd 2b be 69 0a 32 bf
       0.6865096 0.6926578 -0.16777608 -0.69547135
000130 b2 db 6f bf 19 16 fb be f3 ee bd be ee c3 0a 3f
       -0.93694603 -0.49040297 -0.37096366 0.54205215
000140 e6 ad 56 3e a2 43 4a bf 3c 19 30 bf 5f e7 b8 3e
       0.20964774 -0.7900945 -0.68788505 0.36114022
000150 0e fb ef be db 4f 07 bf b0 5b 40 be 1d 64 34 bf
       -0.46871227 -0.52856225 -0.18784976 -0.7046526
000160 ae 28 24 bf 59 05 78 3e 7b a3 93 3e 8e 7a 07 3f
       -0.6412457 0.2422079 0.28835663 0.5292138
000170 07 f5 9d be 58 92 c8 3e 73 45 1a bf 41 34 8d bf
       -0.30851004 0.3917415 -0.6026222 -1.1031572
000180 66 9a 3f bf 72 95 bc 3e 7f a7 b4 3e 40 29 27 bf
       -0.7484497 0.36832768 0.3528404 -0.6529732
000190 e7 1a 0c bf 00 5a a5 be a5 5a 0e bf 11 47 d5 3d
       -0.5472855 -0.32295227 -0.5560706 0.104139455
0001a0 6b 5c 50 be b1 df af be 16 24 f1 be 41 66 27 3f
       -0.20347755 -0.3435035 -0.47097844 0.653904
0001b0 aa f3 28 be 2a 12 45 3f 47 6b 70 3e 19 e2 19 bf
       -0.164992 0.7698084 0.23478423 -0.6011062
0001c0 44 15 3d 3e a4 04 2b bf d9 91 18 3e 79 a7 99 3e
       0.18465143 -0.66803956 0.14899386 0.30010584
0001d0 b8 fb d4 3e 53 10 56 be 51 17 35 3d 7e ff a7 3e
       0.41598296 -0.20904665 0.04421169 0.32812113
0001e0 41 0e 3b be 25 fe 7f be df da 48 bf d1 73 1d bf
       -0.18267156 -0.24999292 -0.7845897 -0.61504847
0001f0 30 50 d6 be a6 4c 86 3e bf 39 15 bf f0 5d 46 be
       -0.41858053 0.26230353 -0.5829124 -0.19371772
000200 12 22 ee 3e 72 b0 cb bd 30 73 a4 be 60 19 ff bd
       0.4651037 -0.09945764 -0.3211913 -0.12456012
000210 29 da 08 3e 5c e7 cb 3e d2 12 81 3e af c4 d1 3d
       0.13364471 0.3982495 0.2520967 0.102425925
000220 38 28 a8 3e 49 11 32 be 50 75 15 bf e3 ce 3f bf
       0.32843184 -0.17389406 -0.5838213 -0.7492506
000230 f0 d2 52 bf d6 ce 40 bf ee 7e 0d 3f 4a 40 07 bf
       -0.82353115 -0.75315607 0.55271804 -0.5283247
000240 46 07 c1 be 38 e9 f2 3e d7 80 08 bf 05 b2 1f bf
       -0.37700862 0.47443557 -0.53321594 -0.6238101
000250 33 36 4d bf 82 3b 81 3e 21 52 22 bd 4c fe 0f bf
       -0.80160826 0.25240713 -0.039629105 -0.562474
000260 5d 0e de 3c 39 90 ca 3d 6b 3a e2 3e b9 76 a2 bd
       0.027106458 0.098907895 0.44185194 -0.07932801
000270 90 f4 53 3e 26 f6 b0 be 97 6e 08 3f 9b d1 d3 3d
       0.20698762 -0.34562796 0.53293747 0.103427134
000280 09 cf 21 be 1c 6d e2 be 27 f6 6c be 14 73 ce 3e
       -0.15801634 -0.4422387 -0.23140775 0.40322173
000290 84 66 27 bf 29 92 e7 bd 45 d3 52 be 7f 4c 8b be
       -0.653908 -0.11307175 -0.20588405 -0.272068
0002a0 03 23 2f bd 52 15 00 3f 41 5a 06 bf 10 25 bb 3e
       -0.042758 0.5003253 -0.52481467 0.36551714
0002b0 ea b6 91 3d a7 c5 c4 be 73 1d b7 be 22 d2 2f 3e
       0.07114966 -0.38432047 -0.35764655 0.17170003
0002c0 b7 4f c1 3d 96 b4 38 bc ec a5 63 3c bc a1 1f 3f
       0.094390325 -0.011273524 0.013894539 0.6235616
0002d0 cf f1 b8 3e ed d1 4a bf db a1 be be ad 91 1e bf
       0.36121985 -0.7922657 -0.3723286 -0.61941034
0002e0 76 61 3a bf 39 73 87 be e2 b1 d0 be bc a2 04 3f
       -0.72804964 -0.26455095 -0.40760714 0.5181081
0002f0 43 14 ab 3e 99 c1 00 bf 9d c5 33 bf fb b4 5c be
       0.33413896 -0.50295407 -0.7022341 -0.21553414
000300 22 36 15 bf 7e 62 c0 3e 0a 53 c9 3e 82 02 25 bf
       -0.58285725 0.37575144 0.39321166 -0.6445695
000310 1c 2e d6 3e 66 ee aa 3e 85 6b ed be c7 49 ea 3e
       0.41832054 0.3338501 -0.46371093 0.45759413
000320 c0 1b 01 3e 44 9d a0 3e 8f 10 18 bf 0b ce 52 bf
       0.12608242 0.31369984 -0.59400266 -0.82345647
000330 53 7b 15 bf b9 71 15 bf 0d 2e 6f 3f 8f b6 2c 3e
       -0.583913 -0.5837665 0.9342964 0.16866516
000340 92 fb 48 bf 9c 6a 4a bf 6f dc f7 be bd 5e b8 bc
       -0.78508866 -0.79068923 -0.48410365 -0.022506112
000350 ad 5c ac be 74 c1 52 3f 03 c0 02 3f 69 7c b7 be
       -0.33664456 0.82326436 0.51074237 -0.35837105
000360 05 2e ff bd 77 15 0a 3f 21 31 e2 3e 2a 57 f0 be
       -0.124599494 0.53939 0.44178107 -0.469415
000370 fe b1 35 bf 3f 21 29 bf 6f 8f f2 3d 69 c0 5d bf
       -0.7097472 -0.66066355 0.11843764 -0.8662172
000380 5b 29 b1 3d 47 53 8a be d3 c4 c2 3e b0 d6 e9 be
       0.08650466 -0.2701666 0.3804079 -0.45671606
000390 13 6a fa 3e 0b 4d 00 bf d9 b6 00 3f 44 85 00 bf
       0.48909053 -0.5011756 0.50279003 -0.5020335
0003a0 ab 3d 4f 3e 91 fc 33 bf 34 c9 f0 3d d1 cf a5 3d
       0.20238368 -0.7030726 0.117571265 0.080962785
0003b0 28 86 42 bf 15 93 a4 3e 86 6d c0 3e 20 2b a4 bf
       -0.75985956 0.32143465 0.3758356 -1.2825661
0003c0 26 16 17 bf e1 09 84 3e ba 99 d9 be 1b 13 07 bf
       -0.5901817 0.25788787 -0.42500097 -0.5276353
0003d0 52 34 b9 be fd 12 30 3c 8b c2 49 bd a3 a7 af 3d
       -0.3617273 0.010746715 -0.049257796 0.08576896
0003e0 45 34 a1 3e 51 f4 bf be 63 02 9a 3e 5b 51 55 bf
       0.3148519 -0.37491086 0.30079946 -0.83327264
0003f0 c2 21 a4 bd 77 5e fd 3e 14 83 f7 3e 29 ce 8a 3e
       -0.08014251 0.49486133 0.48342192 0.27110413

sequential_3/conv2d_9/Conv2D f4 [16, 3, 3, 1]
000000 c1 11 14 bd ae 7f cb 3b 28 32 1c 3d d6 89 c2 3d
       -0.036149744 0.006210289 0.03813377 0.09498946
000010 97 64 d4 3d 0e ea 50 be db 6d 57 3e 7e fa df bd
       0.103707485 -0.20401785 0.21038 -0.109364495
000020 92 c6 1c be ac 85 1a 3e 5a 9c 15 be 75 97 41 be
       -0.15310124 0.15090054 -0.14610425 -0.18905433
000030 c2 1d 30 3d 94 f0 63 3d 90 31 f1 bd 5c a5 06 3e
       0.04299713 0.055649355 -0.117770314 0.13149017
000040 22 8a 96 3e 64 82 95 bd 8a f0 0c 3e 57 27 55 bc
       0.29402262 -0.07300261 0.13763633 -0.013009868
000050 65 4d e5 3d 2a f6 8a bd d4 d8 00 bc ba d0 a2 3d
       0.111964025 -0.06785233 -0.007864196 0.07949968
000060 94 13 06 be 1b 34 b4 3d 27 cd 5a 3e 69 05 6e be
       -0.13093406 0.08799001 0.21367322 -0.23244251
000070 78 4b d9 3a 73 a8 78 3e 9c c1 97 bd 7b 89 ca 3d
       0.0016578278 0.24283008 -0.07409975 0.098895036
000080 4d 05 0d bd 6d 56 f3 3d f2 c2 9d 3c db 40 08 be
       -0.034428883 0.11881719 0.019257996 -0.1330599
000090 4a 20 d3 3d 4f b3 fe 3c e5 e8 f7 3d 7a 06 15 3e
       0.10308893 0.03109136 0.12104968 0.14553252
0000a0 6f d9 50 bd c7 5b 80 bc 33 d8 c1 3d 16 db 8c be
       -0.05098861 -0.015668763 0.09465065 -0.275109
0000b0 88 67 12 be 46 60 79 bd 0a 82 fb bd 2b 06 bc 3d
       -0.14297307 -0.06088283 -0.12280662 0.09180864
0000c0 76 53 ae bd 3f e3 03 be f3 51 b7 3d d3 c4 dd 3d
       -0.08512013 -0.12879656 0.089511774 0.10828557
0000d0 e0 c5 23 3e 7a 5e 8c 3e 85 e8 00 be a8 7b 2f be
       0.15993452 0.2741583 -0.12588699 -0.17137015
0000e0 ef 72 13 3e a2 aa 23 3e db 7a 16 3e 2a be 14 3e
       0.14399312 0.1598306 0.14695303 0.14525667
0000f0 9b 83 ac bd e0 1b fc bd b3 4c bc bd 02 b9 58 3e
       -0.08423539 -0.12310004 -0.09194317 0.21164325
000100 70 4a 15 3e e9 43 91 be a9 1a 10 be 8a 76 f2 3c
       0.14579177 -0.28372124 -0.1407267 0.02959754
000110 90 0d 43 3e d6 7b e3 3b 05 cd 49 bd e0 d9 1d be
       0.19048142 0.0069422526 -0.049267787 -0.15415144
000120 44 6e 58 3e ae c0 0a bd bb c4 31 3e b3 ef 03 3d
       0.21135813 -0.03387516 0.17360203 0.032211017
000130 17 78 11 be 04 4f 3a be 31 b2 c4 ba 6d b3 51 3d
       -0.14205967 -0.18194205 -0.0015006718 0.051196504
000140 14 44 3d be 0a 2c 9e bc bc 95 71 bd da 5e b5 3d
       -0.18483001 -0.019308109 -0.05898069 0.08855982
000150 3f 22 32 be 1a 63 ae bc 1b 91 38 3e 16 10 54 be
       -0.17395876 -0.02128749 0.18024103 -0.20709261
000160 e4 ed 86 bd f1 ad 61 3e 61 b2 30 be 77 ef 83 3d
       -0.06588343 0.2203901 -0.17255546 0.06442159
000170 f9 d8 da bd 33 7a cc bc c2 bf a6 3d ff 69 ca 3d
       -0.106859155 -0.024960613 0.08142044 0.098834984
000180 7c be 46 bc 0d ba 7b be 60 6d 39 be db d7 99 be
       -0.012130376 -0.24582691 -0.1810813 -0.30047497
000190 73 ca c4 bd 87 7d b2 be d0 d3 a1 bd 25 8f 56 3d
       -0.096089266 -0.34861395 -0.07901728 0.052382607
0001a0 bc 15 80 3d dd ab 72 3d 83 b2 b6 bc f7 3e 1c bd
       0.062541455 0.059245933 -0.022301918 -0.038145985
0001b0 68 4b 56 be be 58 41 bd 0e ce 61 3e 35 e9 20 3d
       -0.20927203 -0.04720377 0.2205126 0.039284904
0001c0 9e a9 97 3d 2b 03 a9 3d d6 87 83 bd 74 85 16 be
       0.07405399 0.08252557 -0.06422393 -0.14699346
0001d0 ca 9f f7 3d 38 e2 16 3d 2f 20 ca 3d a9 d6 c7 bd
       0.12091024 0.036836833 0.0986942 -0.0975774
0001e0 e7 1a d7 bd 37 dd 0f bd 44 87 1e be 31 71 48 3e
       -0.10503178 -0.035123076 -0.15481287 0.19574429
0001f0 af fe 6d 3c 8e ba 06 bc e7 6d ac bc a4 af de 3c
       0.014526053 -0.008223189 -0.0210485 0.027183361
000200 1f 10 8c 3d c4 90 4d be c6 57 5c be 50 e0 68 be
       0.06839012 -0.20074755 -0.21517858 -0.22741818
000210 a1 f9 9a bd 74 f2 bd 3c 36 2e 84 be de 6d 81 bd
       -0.07567144 0.0231869 -0.25816506 -0.06319784
000220 c2 7e 55 3d 58 27 3a 3e 23 a4 2d be 77 4d 90 bd
       0.05212284 0.18179071 -0.16957144 -0.07046025
000230 5a 65 cd 3d ff fa 75 be f7 94 08 bd 2c bd f1 3d
       0.10029097 -0.24021529 -0.03334519 0.1180366

sequential_3/conv2d_10/Conv2D f4 [64, 3, 3, 16]
000000 05 13 56 bd 48 0e e6 3d 7f b9 3f be cb 8f 24 bd
       -0.052264232 0.11233193 -0.18723105 -0.040176194
000010 5c 86 80 3d 92 2f 3f 3d 55 9c ed bb 11 64 b8 bd
       0.06275627 0.046676226 -0.0072513022 -0.09003461
000020 39 63 81 3c 2c 5a 00 bd 66 20 6f bd a0 ac 1a 3d
       0.015794383 -0.031335995 -0.058380507 0.037762284
000030 99 c8 7c bd e9 90 45 3d 99 d4 40 be d4 7c e2 bd
       -0.061714742 0.0482339 -0.188311 -0.11058965
000040 c1 b8 04 bd 57 84 ed 3d 89 07 24 be a0 b3 0b 3d
       -0.032402758 0.115975074 -0.160185 0.03410685
000050 c0 9c a5 bd 95 10 cc bc 0e c9 c3 3b cb 8d 94 bd
       -0.08086538 -0.02491025 0.0059748953 -0.07253607
000060 99 09 f1 bd be 56 34 bd 65 63 b2 3d b4 56 fe 3c
       -0.11769409 -0.044028036 0.08710364 0.031047203
000070 da 66 97 3d 40 8d 3d 3d 3a d9 eb bd 9a 87 d1 3c
       0.07392664 0.046277285 -0.11516042 0.025577355
000080 ef 0d 84 3d 31 74 27 3c 2d d4 d8 bd 87 0e fc bc
       0.0644797 0.010220573 -0.10587344 -0.030768646
000090 ee 48 a5 bd 5b 69 95 bd d0 a4 7b 3d bf 34 72 bc
       -0.08070551 -0.072954856 0.061436474 -0.014783083
0000a0 90 99 0c be 91 f3 03 bd fc e8 b6 bc 52 45 03 bc
       -0.13730454 -0.032214705 -0.022327892 -0.008012133
0000b0 75 9a eb bc 55 89 9c 3d c6 b9 17 bd 3f a7 06 bd
       -0.028760174 0.076433815 -0.0370424 -0.032874342
0000c0 f6 15 90 bd 12 dd da 3d ca 11 32 bd 8e 07 93 3d
       -0.07035439 0.10686697 -0.043473996 0.07179175
0000d0 61 18 b1 bd 9c b8 2b 3e 02 74 77 3d 18 30 24 3d
       -0.08647228 0.16769642 0.060413368 0.04008493
0000e0 55 17 4c be d9 8a f8 bc a2 06 4f 3c 98 d0 cb 3d
       -0.19930775 -0.030339645 0.012635859 0.099518955
0000f0 ea c6 95 bc 40 4c a2 3b 40 e5 0a be 50 20 ba bd
       -0.018283326 0.0049529374 -0.13564014 -0.09088194
000100 f6 53 bf bd c3 a2 10 3e cb 27 04 be b3 ae cd 3c
       -0.09342186 0.14124589 -0.12905805 0.025107717
000110 95 50 2a be d5 b3 22 3e fc 1b fe 3c f7 dc 85 bc
       -0.16632302 0.15888913 0.031019203 -0.016340716
000120 fa 2b 3c be 51 76 30 bd e4 49 e9 bc e5 eb 93 bc
       -0.1837615 -0.043081585 -0.028477617 -0.01805682
000130 63 bf e0 3c 6f 24 3b 3d 51 a7 97 bd dc 46 85 be
       0.02743501 0.045689043 -0.0740496 -0.26030624
000140 1d aa 45 bd 5f 17 0f 3e a4 c3 38 be e0 ee 5e bd
       -0.048257936 0.13973759 -0.18043381 -0.054427028
000150 81 f3 36 be 6f b9 8a 3b 5e ca df 3c e7 9d 75 3c
       -0.17866327 0.004233531 0.027318176 0.01499126
000160 c7 bb d0 bd b3 b1 d7 3c 26 b1 02 bd 48 50 d7 3c
       -0.10192066 0.02632985 -0.031907223 0.026283398
000170 51 54 1a bd 10 28 02 3c 41 1d 94 bd bc 05 6b be
       -0.037678067 0.007944122 -0.07232142 -0.22951406
000180 81 39 a2 3d aa d7 61 3e d4 79 9d bc 07 3a 28 3e
       0.07921124 0.22054926 -0.019223131 0.16428386
000190 8b 12 f6 bd 5f 16 34 3e 4c 41 e6 3c b5 3a ab bd
       -0.120152555 0.17586659 0.028107308 -0.08360807
0001a0 06 2e b5 bc 2b 5b cc bd 54 78 92 bd fd 0e 97 3b
       -0.022116672 -0.099783264 -0.07151857 0.004609941
0001b0 8a 0b 6d bd 9b c6 73 3d b0 85 00 3e 98 86 24 bd
       -0.057872333 0.059515577 0.12550998 -0.04016742
0001c0 3f 8e 10 3d 80 42 2a 3d 81 91 9b bc 51 27 8e 3d
       0.035291906 0.041567326 -0.01899028 0.06941093
0001d0 80 2d 8e 3c 61 e5 86 3e cc 53 9a 3d 24 ad 4c bd
       0.01735568 0.26346877 0.07535514 -0.049969807
0001e0 8a b0 f4 bd b7 54 83 bd 9d 4d 7f 3c df 0f b7 3d
       -0.11947735 -0.064126424 0.015582469 0.08938574
0001f0 fb 45 af bb 7f 97 0c 3d bc 0c 3d 3d ea f7 9b 3c
       -0.0053489185 0.034324165 0.046154723 0.019039113
000200 27 40 3d 3d 12 dc 0b 3e 6b f4 a8 3d e1 b3 0d 3e
       0.04620376 0.13658169 0.08249744 0.1383815
000210 7e 72 ef bd 59 e4 85 3e 84 84 a1 bb f7 ae d1 bd
       -0.116917595 0.26150778 -0.004929127 -0.1023845
000220 e4 fd ec bd e5 d7 2c 3d 88 cf d6 bc fd ea 04 bd
       -0.11571863 0.04219808 -0.026222005 -0.032450665
000230 1c 83 47 3d 02 68 aa 3c 00 69 03 3e 75 95 4e bd
       0.04870902 0.020801548 0.12833023 -0.050435502
000240 77 fd a7 3d b4 af 15 3e 71 58 92 bd 52 f7 bf 3d
       0.082026415 0.14617807 -0.07145775 0.093733445
000250 17 58 b3 bd 0c df ae 3c 27 c2 0e 3e 61 08 74 3d
       -0.08757036 0.021346591 0.1394125 0.059578303
000260 b9 3c c8 bd 9a 12 2a be 86 65 22 3e 99 f5 44 3d
       -0.09777207 -0.16608658 0.1585904 0.048085783
000270 67 10 09 3d d4 84 c7 bd 4f 2c 40 be 96 63 d6 3c
       0.033462908 -0.09742132 -0.18766902 0.026170533
000280 8a 25 82 3d c3 40 f5 3d e0 32 6c 3d 24 79 3f 3d
       0.06354816 0.11975243 0.057665706 0.046746388
000290 32 1b fe bc da f3 24 3d 3a b5 53 3d 28 6f 1b bb
       -0.031018827 0.040271617 0.051686503 -0.0023717377
0002a0 0f b8 52 3d 40 c6 1b be 1b 5c 7c 3d 73 c1 21 3e
       0.051445063 -0.15212345 0.061611276 0.15796451
0002b0 19 9b 5d bd 6d d0 51 be a1 a4 33 be c5 50 f6 bc
       -0.05410299 -0.20489664 -0.1754327 -0.03006781
0002c0 07 6a f6 3d 0b cb 78 3d b6 3e 12 3d c9 de 68 3d
       0.12031942 0.060740512 0.035704337 0.05685309
0002d0 32 6e 64 3d fb a7 2b 3c df be fc 3c 76 47 b2 bd
       0.055769153 0.010477061 0.030852733 -0.08705036
0002e0 bc b8 50 bd 68 b4 9a 3b d4 ad a6 3d c7 16 bf 3d
       -0.050957426 0.004721213 0.08138624 0.09330516
0002f0 a1 84 8e bd 72 21 32 be 46 3b 96 bd fa 19 9d 3d
       -0.06958891 -0.17395571 -0.07335524 0.0767097
000300 08 8b 90 bc 76 5a 83 ba c1 b7 84 bc 23 bb 27 3d
       -0.01764442 -0.0010021466 -0.016200902 0.04094995
000310 d2 84 f7 bd 6c a8 18 3d f4 79 e6 bc c4 39 20 be
       -0.1208588 0.037269995 -0.028134324 -0.15647036
000320 bf 40 f6 bd ba 75 78 3b 4e b5 ae 3d 3c a5 0a bb
       -0.12024068 0.0037911967 0.08530675 -0.0021155616
000330 4e 36 3d bd 28 8b 29 3d aa 4a 98 3c 91 f0 47 bd
       -0.046194367 0.041392475 0.01859029 -0.048813406
000340 63 1d 22 bc c7 a2 e6 3c dc 74 88 bd d0 ef 48 3d
       -0.009894702 0.02815379 -0.06662914 0.049056828
000350 67 30 10 be d4 f3 10 3c ff bc 18 3c e8 b2 d3 bd
       -0.14080964 0.008847196 0.009322404 -0.10336858
000360 b1 63 48 bd c5 47 86 3d d3 fd 61 bc e2 32 5c 3c
       -0.048923198 0.06556658 -0.013793427 0.013439866
000370 5f 28 3b 3d 80 33 71 3c 70 30 69 3d 02 6b 00 bd
       0.045692798 0.014721751 0.05693096 -0.03135205
000380 bd 77 9a 3d 10 68 a9 bc 59 da fc bd d1 1e 43 3d
       0.075423695 -0.020679504 -0.12346334 0.04763681
000390 b2 8b f3 bd 6a 97 bb bc 83 5e 96 3d c3 30 4b bd
       -0.11891879 -0.022899348 0.073422454 -0.04960705
0003a0 b6 99 d1 bd 38 b0 94 3d fe ed 2b bd 1b 1b ec 3d
       -0.10234396 0.072601736 -0.041975014 0.115286075
0003b0 6c 3a aa bd 36 fd 8c 3d 54 d2 a8 3c 89 b6 d8 bc
       -0.08311924 0.06884234 0.020608105 -0.026454227
0003c0 99 8b d6 3c ef 08 c1 3c dd 09 a8 bd 6b 2f f5 3d
       0.026189612 0.02356383 -0.08205006 0.11971935
0003d0 67 6e 56 bd e0 68 4f 3d fe b4 0c 3d 50 e0 d7 bd
       -0.05235138 0.050637126 0.034352295 -0.10540831
0003e0 78 bf cc bd 32 62 a7 3d 54 b5 96 bd f9 74 29 3d
       -0.09997457 0.08173026 -0.07358804 0.04137132
0003f0 e0 5b 8d bd 43 4c ee bd 8a ec 5a be b1 4a 03 bd
       -0.069022894 -0.116356395 -0.21379295 -0.032053653

sequential_3/conv2d_11/Conv2D f4 [32, 3, 3, 64]
000000 ed cc f0 bd f3 8e a2 3d c9 ba 58 3d 4d 27 93 3d
       -0.117578365 0.07937422 0.052912507 0.071852304
000010 1c 67 9a bd a6 f8 0b 3d 3e d3 81 bd 6e 4a 9b bd
       -0.07539198 0.034172677 -0.063391194 -0.07582556
000020 63 1d 46 3d 8e 32 18 3d 2d d1 57 bd e5 a5 8a be
       0.04836787 0.037157588 -0.05268972 -0.27079692
000030 82 df e3 bc 5d 24 6f bd 5e 68 97 be ec 37 2b bd
       -0.027816538 -0.058384288 -0.29571813 -0.041801378
000040 c7 8a a8 3e 82 8b 96 bd 02 82 0a 3e f3 50 8f bc
       0.3291838 -0.07350828 0.13526157 -0.017494654
000050 a8 09 70 bd c5 73 80 3d b1 18 f6 3d 15 39 a7 3c
       -0.05860296 0.06272081 0.12016428 0.020412961
000060 fe 12 c1 bd 48 38 7a bc f0 80 39 3e 42 bf 4d bb
       -0.094274506 -0.015272208 0.18115592 -0.0031394516
000070 8a 3b 1f be e6 09 93 bd f8 45 0c be c8 59 80 be
       -0.15550056 -0.07179622 -0.13698566 -0.25068498
000080 1a eb 64 bd 37 be a1 be 95 a0 a5 bd 31 2a 12 3e
       -0.055888273 -0.31590435 -0.08087269 0.14273907
000090 41 53 e2 3d 62 19 59 3c 30 38 b3 3b b9 3a 7e 3d
       0.11051036 0.013250681 0.0054693446 0.06206772
0000a0 d2 1d 0d be a0 88 6a 3d 55 72 99 3d d9 4e b4 3b
       -0.13780907 0.057259202 0.0749251 0.0055025634
0000b0 7b a3 30 3e e8 58 bd bd 5c 87 bd 3d 78 85 eb 3d
       0.17249863 -0.09245473 0.092543334 0.115000665
0000c0 f9 2c 5f 3c 27 a9 f9 bd ee 3c 8d be 37 33 20 bd
       0.013621562 -0.121904664 -0.27585548 -0.039111342
0000d0 07 bd 9b 3d 97 af 25 be aa 96 69 bd 9c 8a 8c 3c
       0.076044135 -0.16180263 -0.05702845 0.017155938
0000e0 8e b3 4f 3c d8 40 7a 3d a0 4f b4 b9 7c 80 e4 bc
       0.0126770865 0.061096996 -0.000343916 -0.027893297
0000f0 da cc c9 3c f4 74 ca 3d f0 d3 a0 3d 80 63 de 3b
       0.024633814 0.09885588 0.07852924 0.0067867637
000100 b8 3f d5 bc 70 bc 32 3d e9 0e 6e bd cf db bd 3d
       -0.02603136 0.04363674 -0.05811969 0.09270441
000110 87 57 e7 bb 0f 2b 33 bd 54 f3 93 bd a9 d0 9d bc
       -0.0070599946 -0.043742236 -0.072241455 -0.019264536
000120 af 7a 07 bd 20 f1 5d bd 02 d6 3c be f0 2f 8e be
       -0.033075985 -0.054185033 -0.18441013 -0.27770948
000130 74 c1 19 3d e4 0f 29 bc 38 b8 15 be b0 03 d4 bb
       0.037538007 -0.01031873 -0.14621055 -0.006470166
000140 2a ac 4f 3e d4 b0 1f be ff 00 41 3e 64 2d 5b bd
       0.20280519 -0.15594798 0.18848036 -0.053510085
000150 f4 bc 23 bc 30 55 0b 3e 90 97 b3 3d 6a 46 5b 3c
       -0.00999378 0.13606715 0.08769143 0.013383487
000160 97 63 86 bd da 54 fd 3c f0 5e 46 3e 93 7f 35 bd
       -0.06561964 0.03092425 0.19372153 -0.044311117
000170 20 9c 41 bc c7 6b 16 bc de b3 b2 bc 3e 9b 51 be
       -0.011817008 -0.00918097 -0.021814283 -0.20469376
000180 cf ef 71 bd 1e 98 6c be 1f 82 80 bd d0 9d 60 3e
       -0.05906659 -0.23104903 -0.06274819 0.219352
000190 f0 59 34 3e 31 3e 9b bd 93 62 41 bd 1b 53 30 3d
       0.17612433 -0.075802214 -0.04721315 0.043048006
0001a0 9d c1 b1 bd 73 2e c4 3c c0 6e 30 3e f9 5d d9 bd
       -0.08679507 0.02394793 0.17229748 -0.10613627
0001b0 e2 50 3e 3e aa 05 aa bd e7 3b fb 3d f0 c9 7f 3c
       0.18585542 -0.083018616 0.12267285 0.0156121105
0001c0 26 1f 06 bc fe 6b d3 bd 1a 3f 47 be 83 c8 a0 bd
       -0.008186137 -0.10323332 -0.19457665 -0.078507446
0001d0 06 d4 a2 3c 27 c1 90 bd 01 7e 95 bb dd 35 07 3c
       0.019876491 -0.07068091 -0.00456214 0.008252588
0001e0 7e df 3f bd 30 cd 71 3c 18 be 86 bd 54 0b a4 3d
       -0.046843998 0.014758393 -0.06579226 0.08009973
0001f0 cd 1a 9c bc 52 e8 7a 3c 94 e6 28 3d 2d db ca 3b
       -0.019055748 0.015314179 0.04123552 0.0061906786
000200 02 61 00 be aa d5 63 3d b1 18 5b 3c 20 1b 05 bd
       -0.12537006 0.055623688 0.013372586 -0.03249657
000210 43 ab b4 bd 4f 0f b6 3d 7f 58 f2 3b a2 f1 81 3c
       -0.08821728 0.08889639 0.0073958035 0.01586229
000220 84 19 a2 bd 93 1b 9f bd 58 31 55 bd 32 fe b3 be
       -0.07915023 -0.07768931 -0.05204901 -0.35154873
000230 af 27 c3 bc 8e ce c3 bd 6c 5b 47 be 00 a8 76 3d
       -0.023822634 -0.095608816 -0.19468468 0.06021881
000240 f2 58 68 3e be b3 df bd 53 6a c3 3d 63 fd db bb
       0.2269018 -0.10922955 0.09541764 -0.0067135557
000250 3b 0c 4a bd 54 ff 45 3c c0 bc bd 3d 32 ae c4 3d
       -0.04932807 0.012084801 0.09264517 0.096035376
000260 03 d3 47 bc eb b7 69 3d 5d b6 44 3e 05 92 af bd
       -0.012196305 0.057060163 0.19210191 -0.08572773
000270 99 37 20 bd 56 51 ef bd 1b 46 e3 bd 83 12 19 be
       -0.039115522 -0.116854355 -0.11097356 -0.14948468
000280 e1 11 e0 bb 94 9b 66 be e0 45 1e bd 47 1e 3c 3e
       -0.006838069 -0.22520286 -0.038640857 0.18370925
000290 6b 60 a8 3d a0 00 71 bd 5f 50 b9 bd 11 ae bb 3d
       0.08221515 -0.058838487 -0.09048533 0.0916406
0002a0 f3 46 d9 bd 46 23 b4 3c b7 e7 e3 3c 85 70 50 3d
       -0.106092356 0.021989476 0.027820451 0.050888557
0002b0 bb f9 2a 3e fd e4 e5 bc 36 99 17 3e ac 4b 65 3d
       0.16696827 -0.028063292 0.14804539 0.05598037
0002c0 71 ec a1 3d bc a7 15 bd 01 af 7d be fe bb b2 bd
       0.07906426 -0.036536917 -0.2477379 -0.08727263
0002d0 85 38 bf bc fe 1c 8a bd 75 dd be bd 60 75 94 3c
       -0.02334238 -0.06743811 -0.09319583 0.018122375
0002e0 fe 09 a5 bd 9d 95 59 3d b2 d6 8f bd 68 2e b9 3d
       -0.080585465 0.053121198 -0.07023372 0.090420544
0002f0 96 05 f2 3c 02 38 a6 3d 37 a2 9e bd a7 17 7a 3d
       0.02954368 0.081161514 -0.07745784 0.061057713
000300 1d bd 2e bd c0 f4 56 3d 8f 93 9a 3c 23 85 c3 bc
       -0.04266082 0.052479506 0.01886919 -0.023867195
000310 72 22 63 bd a1 47 ca bd f8 f5 13 bd 30 71 fa bd
       -0.05545277 -0.098769434 -0.036123246 -0.1222862
000320 e5 d5 01 be e4 1a 2b be 01 5b 29 bd e6 1f 4c be
       -0.1267925 -0.16709477 -0.041346554 -0.19934043
000330 24 8b 6b 3d dd 50 78 3d 1e a8 7f bd d7 ac 80 3d
       0.05750574 0.060623992 -0.06241619 0.062829666
000340 0e 1b 4b 3b f9 49 99 3d 33 17 6a 3d f8 35 25 3d
       0.0030991468 0.07484812 0.05715103 0.04033467
000350 a5 bd 8a 3b 5d e4 5a bd d3 f0 55 bd 80 a3 02 3e
       0.004234033 -0.05344044 -0.05223162 0.12757683
000360 2f 92 8b bd 8c 8c ba 3c 32 2d 7c 3d ff e2 9c 3d
       -0.06814992 0.022772096 0.06156654 0.076604836
000370 95 8e 9f 3d 08 66 02 be eb 27 07 be 94 88 9a bd
       0.07790867 -0.12734234 -0.13198821 -0.075455815
000380 01 4e 83 bd 8e 98 3d be cf 29 4b bd b1 ef a6 bd
       -0.064113624 -0.18515226 -0.04960042 -0.08151186
000390 0d f1 02 3d be 9b 9e bd 9b 2c 1b be fc 9e 0d bd
       0.031968165 -0.07744549 -0.15153734 -0.034575447
0003a0 b7 10 55 3d 0d 81 f1 bc 94 04 39 3d 20 e6 2e 3c
       0.052017894 -0.029480482 0.04517038 0.010674983
0003b0 49 76 e4 3d 1f 45 ae 3c 69 a7 36 3d c8 90 a5 bc
       0.111553736 0.021273194 0.04459325 -0.020210639
0003c0 d8 85 fc bd b2 77 9a bd 3c 2e 34 3c db a7 50 bd
       -0.12330216 -0.07542361 0.010997351 -0.05094133
0003d0 bc 12 2a 3c a6 a0 de bc 9d 81 2c bc b2 c3 0b 3b
       0.010380443 -0.027176213 -0.010528949 0.002132636
0003e0 29 14 01 be e8 d4 14 be a0 a3 89 3d be 11 54 be
       -0.12605347 -0.14534342 0.06720662 -0.20709893
0003f0 94 ed fc 3b 1c d2 41 3c c2 64 1b 3d 69 84 5d bd
       0.007718751 0.011829879 0.037937887 -0.054081354
