model/sound-model.tflite (tflite, 123464 bytes, 16 tensors)

sequential_6/dense_13/BiasAdd/ReadVariableOp f4 [10]
-0.61663574 -0.54867077 0.41415495 -0.3436077 0.20506826 0.23168714 -0.023815017 -0.19235244
0.08957993 0.44075865
00000000: d7db 1dbf b075 0cbf 1e0c d43e 59ed afbe
00000010: 6afd 513e 653f 6d3e b617 c3bc 0af8 44be
00000020: af75 b73d 1eab e13e

sequential_6/dense_12/BiasAdd/ReadVariableOp f4 [32]
0.3607298 0.33946294 -0.044090487 0.13079177 0.31558812 0.17557645 -0.04092991 0.2808196
0.022491887 0.27995053 0.34970728 0.19616494 0.4182335 0.045955986 0.11247621 0.5114487
0.3643833 0.19558387 0.3002951 0.60891277 0.20006023 0.15246977 0.016811643 0.36301827
0.46913108 0.053662673 0.07591051 0.26456732 0.2719083 0.3030089 0.21771511 0.3728204
00000000: 94b1 b83e 16ce ad3e 3a98 34bd 47ee 053e
00000010: c494 a13e 50ca 333e 1fa6 27bd 96c7 8f3e
00000020: e840 b83c ad55 8f3e d50c b33e 76df 483e
00000030: b422 d63e 583c 3c3d ed59 e63d 4dee 023f
00000040: 7390 ba3e 2347 483e 48c0 993e b5e1 1b3f
00000050: 97dc 4c3e 0921 1c3e 92b8 893c 88dd b93e
00000060: f331 f03e 64cd 5b3d f876 9b3d 5e75 873e
00000070: 9137 8b3e fc23 9b3e b6f0 5e3e 51e2 be3e

sequential_6/conv2d_20/BiasAdd/ReadVariableOp f4 [32]
-0.15004084 -0.030055044 -0.059029434 0.012858145 -0.04354091 0.0032197807 -0.08852368 0.111547045
-0.100076675 0.076442555 -0.102644466 0.18399794 0.057059515 0.19160567 -0.14357604 0.044567514
0.23774752 -0.06392877 0.1400172 -0.18721032 0.17763533 -0.058873996 0.022020629 0.11681495
0.012304932 -0.11696709 -0.11954583 0.049113184 -0.09353475 0.18622087 -0.08318582 0.080842756
00000000: 4ea4 19be ff35 f6bc d9c8 71bd f8aa 523c
00000010: f457 32bd f502 533b e74b b5bd c772 e43d
00000020: 00f5 ccbd ea8d 9c3d 4337 d2bd f569 3c3e
00000030: 3db7 693d 4734 443e 9905 13be 6d8c 363d
00000040: 1674 733e 16ed 82bd ab60 0f3e 10b4 3fbe
00000050: 09e6 353e dc25 71bd 9b64 b43c ad3c ef3d
00000060: a09a 493c 718c efbd 72d4 f4bd e82a 493d
00000070: 268f bfbd afb0 3e3e 545d aabd e390 a53d

sequential_6/conv2d_19/BiasAdd/ReadVariableOp f4 [64]
-0.11842063 -0.15577754 -0.1319768 0.16348366 -0.020993333 0.035042193 -0.14692211 -0.093220375
-0.12581871 -0.154182 -0.034866657 -0.14089642 -0.033401184 0.0059728436 -0.2299607 -0.11078986
-0.08380011 0.051489055 -0.023052923 -0.25584581 -0.09218301 -0.4155359 -0.17297088 -0.1029377
-0.17042045 0.015336468 -0.050717823 -0.013990373 -0.0062944945 -0.051541623 -0.08968101 -0.33965343
0.03371322 -0.03498191 -0.209917 -0.1236661 -0.17287526 -0.023709618 -0.1397564 0.088978015
-0.12466688 -0.10394147 -0.22241853 -0.013686715 -0.10727754 -0.14826101 -0.09156959 -0.11471315
0.03234813 -0.023335394 -0.30524772 -0.096949056 -0.14825687 -0.15771449 -0.163885 -0.11870807
-0.13592097 0.12479835 0.0036620055 -0.14250483 -0.24448371 -0.12110325 0.020619268 -0.099318735
00000000: 8486 f2bd 2684 1fbe ed24 07be 4368 273e
00000010: 36fa abbc 6788 0f3d c072 16be 53ea bebd
00000020: 9fd6 00be e3e1 1dbe 57d0 0ebd 2747 10be
00000030: aecf 08bd d8b7 c33b d17a 6bbe cbe5 e2bd
00000040: 649f abbd 30e6 523d 7cd9 bcbc 39fe 82be
00000050: 72ca bcbd 1fc1 d4be 471f 31be 00d1 d2bd
00000060: b382 2ebe cf45 7b3c 7ebd 4fbd e137 65bc
00000070: 0c42 cebb 4f1d 53bd adaa b7bd 0ee7 adbe
00000080: e016 0a3d 3149 0fbd 7bf4 56be a744 fdbd
00000090: 3606 31be ac3a c2bc 4d1c 0fbe 1b3a b63d
000000a0: 5951 ffbd 44df d4bd afc1 63be 3e3e 60bc
000000b0: 54b4 dbbd bcd1 17be d688 bbbd baee eabd
000000c0: 797f 043d de29 bfbc 6e49 9cbe 3a8d c6bd
000000d0: a6d0 17be e87f 21be 78d1 27be 371d f3bd
000000e0: de2e 0bbe 4796 ff3d 42fe 6f3b c9ec 11be
000000f0: f059 7abe fb04 f8bd bde9 a83c 9f67 cbbd

sequential_6/conv2d_18/BiasAdd/ReadVariableOp f4 [16]
-0.31565985 0.0056780316 -0.526957 -0.31861505 -0.05591594 0.42873955 0.25393185 -0.12993354
-0.31047583 0.15635493 0.13887878 -0.15139583 -0.42934057 0.40974158 -0.23159026 0.27907687
00000000: 2b9e a1be c80e ba3b a7e6 06bf 8321 a3be
00000010: 1d08 65bd c083 db3e 5b03 823e 4c0d 05be
00000020: b0f6 9ebe 821b 203e 3d36 0e3e 8207 1bbe
00000030: 87d2 dbbe a6c9 d13e ff25 6dbe 2ae3 8e3e

sequential_6/batch_normalization_18/FusedBatchNormV3 f4 [16]
0.019690992 0.025320621 0.17287865 0.42968816 0.1875959 0.11874561 0.031362332 0.2031931
0.07900616 0.649903 0.054665234 0.012099389 0.122325376 0.49099195 0.09592209 0.06611101
00000000: 014f a13c 316d cf3c 1a07 313e 1600 dc3e
00000010: 2419 403e e630 f33d ca75 003d da11 503e
00000020: fbcd a13d 0b60 263f a7e8 5f3d 843c 463c
00000030: ba85 fa3d 4c63 fb3e cd72 c43d 3665 873d

sequential_6/batch_normalization_18/FusedBatchNormV31 f4 [16]
-0.45909998 -0.5446951 -0.24424016 -0.28109223 -0.3186651 -0.46784824 -0.40502 -0.38569176
-0.11595927 -0.5972736 -0.1414927 -0.4200909 -0.16424756 -0.34009135 -0.055414945 -0.11689991
00000000: 270f ebbe 2371 0bbf 181a 7abe 52eb 8fbe
00000010: 1228 a3be ce89 efbe c85e cfbe 6479 c5be
00000020: 0e7c edbd ece6 18bf 76e3 10be 2816 d7be
00000030: 8330 28be 7420 aebe c8fa 62bd 3869 efbd

sequential_6/batch_normalization_19/FusedBatchNormV3 f4 [64]
6.43826 1.6638569 2.4569583 0.897432 3.0469918 1.4161766 6.262558 1.2176569
5.508229 7.2347493 1.4705055 2.6988103 1.5870283 0.49089012 5.978399 1.7599598
3.0124245 1.1904981 2.3668857 3.4170718 1.9869924 2.9357703 2.2378967 3.5919125
1.1306105 0.5393876 1.2507676 1.9553108 1.1404059 0.9564991 2.5520926 2.1055532
1.0526984 0.7291036 8.046503 1.5320574 6.4899087 1.4723473 2.6056137 1.1886321
2.3900542 8.926972 1.2120646 2.1722345 4.6505885 3.2331247 0.87660253 4.432486
0.49758717 1.7377863 4.7425184 3.619222 2.7712557 7.2241 5.8970866 2.4669123
1.4525362 0.5610457 0.9090907 0.95056874 2.4075243 3.3568351 0.9309916 1.2781974
00000000: 3a06 ce40 43f9 d43f ce3e 1d40 1bbe 653f
00000010: ea01 4340 4645 b53f e066 c840 2edc 9b3f
00000020: 6943 b040 1183 e740 8639 bc3f 4fb9 2c40
00000030: be23 cb3f f355 fb3e 0b4f bf40 5d46 e13f
00000040: 90cb 4040 3e62 983f 0e7b 1740 4eb1 5a40
00000050: c455 fe3f a9e3 3b40 b339 0f40 e5e1 6540
00000060: d8b7 903f 4e15 0a3f 2719 a03f a047 fa3f
00000070: d2f8 913f 20dd 743f 7c55 2340 62c1 0640
00000080: d2be 863f 89a6 3a3f 7abe 0041 751a c43f
00000090: 55ad cf40 e075 bc3f 60c2 2640 1925 983f
000000a0: a6f6 1840 e1d4 0e41 ef24 9b3f e405 0b40
000000b0: 9fd1 9440 84eb 4e40 0669 603f edd6 8d40
000000c0: bfc3 fe3e c86f de3f b6c2 9740 55a1 6740
000000d0: 415c 3140 d42b e740 efb4 bc40 e4e1 1d40
000000e0: b5ec b93f b1a0 0f3f 2bba 683f 7958 733f
000000f0: e114 1a40 63d6 5640 7755 6e3f f99b a33f

sequential_6/batch_normalization_19/FusedBatchNormV31 f4 [64]
-0.1795315 -0.37558404 -0.35536483 -1.545996 -0.23838478 -0.83120394 0.021669708 -0.448206
0.051527046 -0.11973835 -0.5953332 -0.27602467 -0.031224474 -0.665848 -0.004411161 -0.18013428
0.028863594 -0.51629853 -0.84953797 -0.16489358 -0.16219935 -0.13516857 0.00041097403 0.08346847
-0.3063339 -0.8024506 -0.41369754 -0.6346147 -0.40338057 -0.13908333 -0.24072196 -0.2626354
-1.1184602 -0.36099595 -0.21052533 -0.17680667 0.019228667 -1.3019419 -0.23685661 -0.6383705
-0.11441065 0.0062793493 -0.42419696 -0.78279394 -0.1083779 -0.06517224 -0.17942378 -0.17462707
-0.13440713 -0.31268564 -0.38168535 -0.33208582 -0.0045205206 -0.2085177 0.057869926 -0.13822815
-0.21288988 -0.904652 -0.8135019 -0.3223252 -0.24203938 -0.09120844 -0.39127716 -0.11734817
00000000: 1bd7 37be 8d4c c0be 61f2 b5be 32e3 c5bf
00000010: 241b 74be c8c9 54bf ac84 b13c 427b e5be
00000020: 060e 533d 6139 f5bd c267 18bf 1b53 8dbe
00000030: 78ca ffbc 0475 2abf 808b 90bb 1f75 38be
00000040: 5873 ec3c 242c 04bf 527b 59bf ddd9 28be
00000050: 9617 26be a169 0abe 0078 d739 84f1 aa3d
00000060: ccd7 9cbe 676d 4dbf 2ad0 d3be 1c76 22bf
00000070: e687 cebe dc6b 0ebe d17f 76be 2678 86be
00000080: b429 8fbf 76d4 b8be f493 57be cf0c 35be
00000090: 7085 9d3c 08a6 a6bf 8a8a 72be 406c 23bf
000000a0: 2250 eabd 00c3 cd3b 5830 d9be 2f65 48bf
000000b0: 3cf5 ddbd 0679 85bd deba 37be 70d1 32be
000000c0: 06a2 09be 5518 a0be 436c c3be 2707 aabe
000000d0: e020 94bb aa85 55be 0409 6d3d ae8b 0dbe
000000e0: ceff 59be 4697 67bf a941 50bf cf07 a5be
000000f0: 2cd9 77be 7ecb babd 7b55 c8be 3d54 f0bd

sequential_6/batch_normalization_20/FusedBatchNormV3 f4 [32]
6.6740217 1.5945299 1.8933473 1.0231667 2.262467 1.0636922 3.0970166 0.8079753
1.7900734 0.8990171 1.9864682 0.918637 0.98511153 0.86338645 2.8026297 0.9614686
0.7269635 1.2905389 0.9234231 3.4234312 0.62871975 2.2621846 0.82689 0.8904417
1.0450237 4.9978905 2.3766267 0.83158475 1.5292493 0.7687442 1.9700885 0.90106684
00000000: 9691 d540 8e19 cc3f 3459 f23f 20f7 823f
00000010: 42cc 1040 1127 883f 8535 4640 78d7 4e3f
00000020: 2021 e53f fc25 663f 9744 fe3f cb2b 6b3f
00000030: 4530 7c3f e506 5d3f 495e 3340 ce22 763f
00000040: 481a 3a3f 6130 a53f 7565 6c3f 7f19 5b40
00000050: c7f3 203f a2c7 1040 10af 533f fdf3 633f
00000060: 56c3 853f b8ee 9f40 a71a 1840 bde2 543f
00000070: 71be c33f 6bcc 443f dc2b fc3f 51ac 663f

sequential_6/batch_normalization_20/FusedBatchNormV31 f4 [32]
-0.16636121 -0.19520253 -0.16954628 -1.6872555 -0.15369354 -0.27462375 -0.3979 -2.5868309
-0.3577162 -2.2332892 -0.45416486 -2.8253078 -1.9270585 -2.5758014 -0.20626366 -2.1117878
-2.847003 -0.5738098 -2.099366 -0.4811408 -2.6574292 -0.25685012 -1.8552501 -2.4630907
-2.6615684 -0.10638769 -0.20639734 -1.563753 -0.30092216 -2.589498 -0.4801038 -1.9814271
00000000: 985a 2abe 2ce3 47be 8a9d 2dbe fdf7 d7bf
00000010: d761 1dbe 7c9b 8cbe 8cb9 cbbe a38e 25c0
00000020: 9426 b7be 36ee 0ec0 4c88 e8be d8d1 34c0
00000030: daa9 f6bf eed9 24c0 c836 53be 8827 07c0
00000040: 4c35 36c0 33e5 12bf 035c 06c0 1658 f6be
00000050: 5213 2ac0 dc81 83be d678 edbf 47a3 1dc0
00000060: 2357 2ac0 cae1 d9bd d359 53be 0f29 c8bf
00000070: 7812 9abe 56ba 25c0 2ad0 f5be 679f fdbf

sequential_6/dense_12/MatMul f4 [32, 32]
-0.56106246 -0.14749822 -0.3305743 -0.042565927 0.07539118 -0.06357623 0.39744085 -0.20777793
-0.07588098 -0.24967381 0.3231085 -0.0036799244 0.09694059 0.19686891 -0.60635525 -0.32222244
0.030036895 0.6615168 -0.72124803 0.15493664 -0.5631516 7.3547824e-05 0.23883508 0.077402405
-0.09747605 -0.1380746 0.30421215 0.14989936 0.09922387 -0.045080036 -0.046236627 -0.4351415
-0.3131866 -1.1493999 0.12393115 -0.06413046 -1.1205665 -0.1368663 -0.22302748 0.4814458
-0.09821826 0.16127804 -0.10859643 0.26751366 0.18922414 -0.07147522 0.11443196 0.77164155
-0.011452606 -0.24220532 0.10366174 -0.7161187 0.052359138 -0.4390534 -0.060549024 0.39519846
0.50867385 0.049750745 -0.31677946 -0.059799824 -0.24664488 -0.126821 0.20761949 0.106140465
0.077581555 0.054965973 -0.24530017 -0.15029897 -0.008849217 0.025027964 -0.0110668335 0.4493084
0.26711112 0.84876066 -0.21398383 0.1905855 0.09343785 0.1555527 0.054185405 0.68371296
-0.010265639 -0.78409815 0.16776733 -0.4134086 0.1039087 -0.23903193 0.24172053 -0.118976705
0.2538418 0.32528725 -0.20839982 -0.24518599 -0.13469708 0.10467739 -0.07319989 0.16099772
-0.69323504 0.5180963 0.49174586 0.13990055 0.12752728 0.40081745 -0.046575468 0.31319797
-0.11338149 -0.9162436 -0.37436506 -0.86422884 -0.082331285 -0.6713809 0.8316101 -0.2102086
0.027715206 -0.3108383 0.13777065 0.15648124 0.005463961 0.2624913 0.14149289 -6.245094e-05
-0.3638996 -0.09172072 0.17233644 0.20831914 0.057122532 -0.008163843 -0.811284 -0.04808615
0.5374857 0.13687162 -0.24546975 0.52732426 -0.62398267 0.2104274 -0.04833631 -0.24006961
-0.21215722 -0.2461456 -0.06961735 -0.13873026 0.3057014 -0.30631244 0.18466903 -0.54680514
-0.15318955 0.253969 -0.3388005 -0.33029732 -0.397357 -0.33296758 0.090119936 -0.109215856
-0.22082499 0.3948532 0.36177358 -0.010133229 -0.09697258 -0.28578648 0.07329291 0.22695619
-0.6596323 0.21706875 0.0066448557 -0.24150757 0.006910153 -0.7906023 0.067910306 -0.2819686
-0.2488604 0.22152872 0.37262562 -0.13950455 0.26123676 0.05152205 -0.0780309 -0.17734532
0.08559624 -0.068972774 0.1985822 0.020467376 0.43481636 -0.12038321 -0.31840813 0.19164464
1.0505846 -0.4644759 -0.11703505 0.125923 0.066026226 -0.35042486 -0.080727994 -0.13376844
-0.4462232 0.44223294 0.43363598 0.03436384 0.23714286 -0.018365588 -0.6390137 -0.15477912
0.035248477 -0.44995755 0.14398201 -0.3490696 0.67395735 -0.007842868 0.77904236 -0.1710726
0.12087489 -0.0962047 -0.41204825 -0.30535173 0.0007196666 -0.5596063 0.36329466 0.088620655
-0.18077694 -0.20196407 0.49785346 0.19060455 0.3839944 -0.17018266 -0.37084952 -0.3059436
0.087158814 0.0010044473 -0.27394515 0.02247467 0.09583996 0.048529245 0.2229829 -0.21584775
-0.6441382 -0.19742613 -0.2647359 0.9708348 -0.14692172 0.14366366 -0.5139262 -0.41884658
0.1957011 0.0012739374 -0.5365346 -0.02247385 0.13725099 0.117225304 0.22954568 0.16550255
0.25381225 -0.6585612 -0.010447968 -0.414505 -0.45497647 0.35762846 0.525147 -0.6227998
00000000: caa1 0fbf c609 17be 0941 a9be 9c59 2ebd
00000010: b166 9a3d 4134 82bd 5e7d cb3e bdc3 54be
00000020: 7d67 9bbd 7eaa 7fbe 7a6e a53e e32a 71bb
00000030: ca88 c63d 0198 493e 193a 1bbf 57fa a4be
00000040: ef0f f63c 2a59 293f b6a3 38bf b6a7 1e3e
00000050: b42a 10bf b03d 9a38 2f91 743e 2785 9e3d
00000060: 86a1 c7bd 6e63 0dbe b2c1 9b3e 387f 193e
00000070: e235 cb3d d8a5 38bd 9e62 3dbd deca debe
00000080: fe59 a0be 891f 93bf 9dcf fd3d d556 83bd
00000090: b96e 8fbf ae26 0cbe 5161 64be 1080 f63e
000000a0: a826 c9bd 1226 253e ce67 debd 8df7 883e
000000b0: f9c3 413e 9a61 92bd 4e5b ea3d 4d8a 453f
000000c0: b6a3 3bbc ac04 78be 9b4c d43d 8e53 37bf
000000d0: 8976 563d 9bcb e0be 4102 78bd 7457 ca3e
000000e0: 7338 023f 70c7 4b3d eb30 a2be a9f0 74bd
000000f0: 7a90 7cbe 5ddd 01be 349a 543e 2c60 d93d
00000100: 14e3 9e3d 0024 613d f82f 7bbe f9e7 19be
00000110: 4efc 10bc 7207 cd3c aa51 35bc c00b e63e
00000120: cac2 883e 6148 593f 941e 5bbe d828 433e
00000130: 585c bf3d 3549 1f3e 84f1 5d3d d007 2f3f
00000140: 3631 28bc a8ba 48bf 33cb 2b3e 4baa d3be
00000150: 16ce d43d c9c4 74be 9685 773e 0faa f3bd
00000160: 8df7 813e 0d8c a63e c366 55be 0912 7bbe
00000170: 08ee 09be 1961 d63d d3e9 95bd 96dc 243e
00000180: da77 31bf f6a1 043f 1dc6 fb3e 1742 0f3e
00000190: 8396 023e f237 cd3e ebc5 3ebd 7c5b a03e
000001a0: 8e34 e8bd f18e 6abf c7ac bfbe 1a3e 5dbf
000001b0: 4e9d a8bd 9edf 2bbf 66e4 543f ec40 57be
000001c0: 000b e33c 3326 9fbe c013 0d3e 9e3c 203e
000001d0: 070b b33b 4265 863e 83e3 103e 18f8 82b8
000001e0: 0c51 babe 13d8 bbbd f778 303e 9d51 553e
000001f0: 51f9 693d a4c1 05bc 4fb0 4fbf fcf5 44bd
00000200: aa98 093f 1328 0c3e 6c5c 7bbe b9fe 063f
00000210: 54bd 1fbf 487a 573e 4bfc 45bd cfd4 75be
00000220: be3f 59be 980d 7cbe 8b93 8ebd 4e0f 0ebe
00000230: e584 9c3e fcd4 9cbe e119 3d3e 6cfb 0bbf
00000240: b9dd 1cbe 3a08 823e 4277 adbe bb1c a9be
00000250: 6072 cbbe ba7a aabe cd90 b83d 90ac dfbd
00000260: f21f 62be 332a ca3e 633a b93e d805 26bc
00000270: 8f99 c6bd 9b52 92be 981a 963d 3467 683e
00000280: aadd 28bf 4547 5e3e 17bd d93b c34d 77be
00000290: 916e e23b ea64 4abf 8f14 8b3d 305e 90be
000002a0: 43d5 7ebe 6dd8 623e c9c8 be3e 48da 0ebe
000002b0: d3c0 853e c908 533d aace 9fbd 039a 35be
000002c0: 154d af3d 9941 8dbd 2259 4b3e 33ab a73c
000002d0: 40a0 de3e 798b f6bd 6406 a3be 7e3e 443e
000002e0: 8e79 863f c9cf edbe 13b0 efbd f5f1 003e
000002f0: c238 873d e36a b3be b854 a5bd 98fa 08be
00000300: 5e77 e4be 5b6c e23e 8905 de3e 19c1 0c3d
00000310: 94d5 723e 6e73 96bc 6796 23bf 6b7e 1ebe
00000320: b560 103d d660 e6be 0570 133e 40b9 b2be
00000330: 7888 2c3f 5f7f 00bc 526f 473f a82d 2fbe
00000340: 418d f73d f806 c5bd fdf7 d2be 1057 9cbe
00000350: 02a8 3c3a 5c42 0fbf c201 ba3e bf7e b53d
00000360: 971d 39be abcf 4ebe a6e6 fe3e d72d 433e
00000370: ea9a c43e 5d44 2ebe fddf bdbe a4a4 9cbe
00000380: 5280 b23d a9a7 833a 8a42 8cbe cd1c b83c
00000390: be47 c43d 9ac6 463d a155 643e 3107 5dbe
000003a0: 3ee6 24bf 132a 4abe 778b 87be a188 783f
000003b0: a672 16be 911c 133e ab90 03bf 0f73 d6be
000003c0: df65 483e 3ffa a63a 555a 09bf 141b b8bc
000003d0: 868b 0c3e d213 f03d 060e 6b3e 8079 293e
000003e0: aef3 813e 7897 28bf f42d 2bbc 003a d4be
000003f0: adf2 e8be 141b b73e 0970 063f cf6f 1fbf

sequential_6/dense_13/MatMul f4 [10, 32]
-0.5973299 -0.7387037 -0.48970827 0.7724569 0.29356647 -0.39792597 0.42219192 -0.7093632
-0.11944187 0.16019776 -0.20774774 -0.8228353 0.26967064 0.58609396 -0.99992543 0.1065812
0.20598239 -0.5283017 0.34711406 -0.91663784 -0.582482 0.22296295 -0.43124372 0.3937724
-0.68179053 -0.58525354 -0.65276 0.3730599 0.40233693 -0.17599428 -0.24564496 0.05626
0.78641474 -0.7935308 -0.08204248 -0.2762636 0.009607511 -0.5134516 -0.5243691 0.6115355
-0.13720088 0.4041797 0.58839214 -0.6438991 -0.10581418 -0.66299385 -0.052432124 0.38468704
-0.5351832 -0.7146513 0.5388142 -0.22451918 -0.494539 -0.5767099 0.73277605 -0.37885937
0.44241825 -0.4318723 -0.19923612 -0.52222127 -0.12975222 0.2909598 -0.5498044 -0.30953425
0.4161233 -0.028139744 -0.76067173 -0.47236523 -0.4196386 0.56432164 0.23479204 -0.29533452
0.58796054 0.6051374 -0.7697247 -0.66857195 -1.0244008 -0.19740939 -0.12726279 0.63236004
0.49669653 -0.51736224 -1.0109255 0.39096522 -0.2428835 -0.4649318 -0.25469345 -0.61832845
-0.6199377 0.15914571 0.46609825 0.6811956 -0.64841366 -0.9582834 -0.5234559 -1.1529264
-0.32100484 0.25516078 0.53023523 -0.5879921 -0.69675714 -0.21007971 -0.75533986 -0.5467513
-0.18613544 -0.3066807 0.113498025 0.5938198 0.17163423 0.6122066 0.5910106 -1.014954
0.16569306 -0.3511578 0.12565911 0.4547122 0.36375275 -0.123440295 -0.13703291 -0.06376082
-0.38327423 -0.13310075 -0.77115625 -0.71196425 -0.30241403 0.4339161 -0.6546289 -0.18175973
0.2659824 0.14448614 -0.28178522 -0.30201742 0.24800803 0.2860711 0.25657132 0.55027044
-0.123927064 0.0004157874 -0.21093148 -0.4568471 -0.6541737 -0.78882337 0.17004976 -0.3395604
-0.5627059 0.6205216 -0.5915416 -0.6889399 -0.4403413 0.3134841 0.35011098 -0.8141282
0.2703623 0.14783354 0.39826563 -0.29014996 -0.14365992 -0.7620905 0.462026 0.06589563
0.07419961 -0.5566048 -0.37936693 0.4105353 -0.3864534 -0.43889314 0.18372223 -0.7529719
-0.20304139 0.19980755 -0.63054496 0.35835323 0.12109974 -0.24165979 -0.3010714 0.1335833
0.060119353 0.08038048 0.019418499 0.6484751 0.424087 -0.9920826 -0.60874015 -0.56133676
-0.7981407 -0.50526434 -0.2183442 0.44286537 0.28728738 -0.10813386 -0.4849291 0.11502999
-0.7218975 0.36987677 0.5663025 -0.7582191 -0.4791624 0.40299994 -0.67569643 0.19581486
-0.19526957 0.56611425 0.5181528 -0.75996804 -0.538941 -0.7944353 1.0215206 -0.21574628
-0.7375679 0.017798262 -0.47735035 0.124820575 -0.31389427 0.7420075 0.4757091 -0.65820783
-0.38324854 0.61135864 -0.15742852 -0.2271658 -0.8141164 0.05169896 -0.23701558 -0.9083358
0.16710792 -0.27049124 0.25189003 -0.5082257 0.36453322 -0.3396259 0.22122274 0.062392343
0.63414526 -0.67329186 -0.40343663 0.29355305 -0.82485163 0.34773165 -0.15063137 -1.1523123
-0.27718368 0.40936548 -0.5778141 -0.07056112 -0.20054315 -0.18908821 -0.30822757 0.2816987
0.36676845 -0.26612204 0.40589362 -0.70703834 -0.45819932 -0.037396688 0.4862305 -0.09753208
00000000: 9dea 18bf b01b 3dbf 0bbb fabe bcbf 453f
00000010: 584e 963e f4bc cbbe 8a29 d83e d498 35bf
00000020: f09d f4bd e20a 243e d3bb 54be 56a5 52bf
00000030: 4512 8a3e 410a 163f 1dfb 7fbf 3f47 da3d
00000040: 0ced 523e c83e 07bf efb8 b13e c7a8 6abf
00000050: 8a1d 15bf 6650 643e facb dcbe 899c c93e
00000060: d389 2ebf 2dd3 15bf 481b 27bf b501 bf3e
00000070: 1bff cd3e d837 34be 5a8a 7bbe e370 663d
00000080: 7a52 493f d624 4bbf e305 a8bd 6c72 8dbe
00000090: d268 1d3c 9071 03bf 0e3d 06bf 978d 1c3f
000000a0: 637e 0cbe a4f0 ce3e dea0 163f 92d6 24bf
000000b0: 1bb5 d8bd f7b9 29bf 11c3 56bd b3f5 c43e
000000c0: c401 09bf 63f3 36bf baef 093f 5be8 65be
000000d0: 3734 fdbe 43a3 13bf 3697 3b3f dbf9 c1be
000000e0: a584 e23e 5e1e ddbe 8e04 4cbe 4bb0 05bf
000000f0: c4dd 04be aff8 943e fbbf 0cbf 467b 9ebe
00000100: 1d0e d53e 5285 e6bc 62bb 42bf dbd9 f1be
00000110: dfda d6be 6277 103f 536d 703e 1636 97be
00000120: 9584 163f 49ea 1a3f ae0c 45bf 8827 2bbf
00000130: 911f 83bf b025 4abe 2d51 02be 59e2 213f
00000140: 024f fe3e da71 04bf 0266 81bf 982c c83e
00000150: 74b6 78be 8a0b eebe 2e67 82be c64a 1ebf
00000160: 3db4 1ebf 18f7 223e 6ea4 ee3e d662 2e3f
00000170: 70fe 25bf 1052 75bf 3501 06bf 1893 93bf
00000180: bf5a a4be 6fa4 823e 7fbd 073f a686 16bf
00000190: ad5e 32bf 231f 57be f45d 41bf e5f7 0bbf
000001a0: 4a9a 3ebe 4105 9dbe a771 e83d 9304 183f
000001b0: e2c0 2f3e 92b9 1c3f 784c 173f 03ea 81bf
000001c0: 71ab 293e f5ca b3be c8ac 003e 0ad0 e83e
000001d0: cd3d ba3e 44ce fcbd 5b52 0cbe 0895 82bd
000001e0: 853c c4be 904b 08be 7f6a 45bf 4a43 36bf
000001f0: 03d6 9abe 402a de3e c295 27bf 391f 3abe
00000200: d82e 883e 2df4 133e 2746 90be 07a2 9abe
00000210: d1f5 7d3e e977 923e 515d 833e 86de 0c3f
00000220: 79cd fdbd 0afe d939 6cfe 57be dde7 e9be
00000230: ed77 27bf 54f0 49bf 8621 2e3e dcda adbe
00000240: 7e0d 10bf 81da 1e3f 456f 17bf 5e5e 30bf
00000250: 6a74 e1be fd80 a03e bf41 b33e b56a 50bf
00000260: ed6c 8a3e ad61 173e 79e9 cb3e 898e 94be
00000270: 961b 13be 5d18 43bf ac8e ec3e 4af4 863d
00000280: f7f5 973d a77d 0ebf 623c c2be af31 d23e
00000290: 38dd c5be 9ab6 e0be ae21 3c3e c4c2 40bf
000002a0: 15ea 4fbe 5a9a 4c3e 656b 21bf 137a b73e
000002b0: 2403 f83d aa75 77be 0826 9abe 10ca 083e
000002c0: b63f 763d 859e a43d 8b13 9f3c 7702 263f
000002d0: ee21 d93e 20f9 7dbf 65d6 1bbf c4b3 0fbf
000002e0: f352 4cbf 0159 01bf 9f95 5fbe 40bf e23e
000002f0: 5517 933e 4975 ddbd a148 f8be d894 eb3d
00000300: 46ce 38bf 7d60 bd3e 33f9 103f a61a 42bf
00000310: c654 f5be 0256 ce3e 71fa 2cbf b183 483e
00000320: bff4 47be ddec 103f a9a5 043f 448d 42bf
00000330: 0af8 09bf 1d60 4bbf 30c1 823f 98ec 5cbe
00000340: 40d1 3cbf a9cd 913c 4467 f4be eea1 ff3d
00000350: c0b6 a0be 34f4 3d3f 2590 f33e 4f80 28bf
00000360: 2739 c4be 0082 1c3f f134 21be 279e 68be
00000370: ef69 50bf 4ac2 533d 36b4 72be b288 68bf
00000380: 571e 2b3e d47d 8abe bbf7 803e 141b 02bf
00000390: 19a4 ba3e 72e3 adbe 3788 623e 1d8f 7f3d
000003a0: 5857 223f db5c 2cbf 3f8f cebe 964c 963e
000003b0: 7a29 53bf e209 b23e 1c3f 1abe f87e 93bf
000003c0: 05eb 8dbe 5a98 d13e a0eb 13bf 5982 90bd
000003d0: 2f5b 4dbe 57a0 41be 01d0 9dbe d03a 903e
000003e0: 13c9 bb3e 2641 88be 4ad1 cf3e 7700 35bf
000003f0: 1a99 eabe 452d 19bd 34f3 f83e e6be c7bd

sequential_6/conv2d_18/Conv2D f4 [16, 3, 3, 1]
-0.24264796 -0.16694836 -0.030386265 0.015316552 0.083800994 -0.16000603 0.083578095 -0.1277187
-0.08914138 0.121213555 -0.21986863 -0.25471517 0.06063277 0.068071775 -0.0942033 0.048390873
0.26290026 -0.049942747 0.153691 -0.028766336 0.030403445 -0.032350853 -0.0060284403 0.0722109
-0.1356106 0.066721 0.20206475 -0.22732174 -0.00059350126 0.23189767 -0.047953237 0.09831938
-0.051879656 0.15183036 0.00843602 -0.1734858 0.06908697 0.0033423037 0.09389416 0.17872407
-0.07471927 -0.08537664 0.1500468 -0.24236295 -0.12393782 -0.06311309 -0.119859524 0.09185288
-0.07084975 -0.14084198 0.032633096 0.11311262 0.16062133 0.2841008 -0.1410788 -0.18143728
0.13063067 0.1513597 0.12476113 0.13332419 -0.096236005 -0.13196734 -0.07691457 0.2151669
0.1724861 -0.23395818 -0.15460142 0.03865506 0.20043848 -0.0837314 -0.09484675 -0.17254557
0.18564972 -0.053423 0.20923017 0.042276833 -0.159107 -0.2173351 -0.03052776 0.054809414
-0.17820281 -0.038754124 -0.056713335 0.11077505 -0.18498898 -0.014860085 0.192623 -0.1853531
-0.0600805 0.21677676 -0.14724202 0.101033986 -0.08006983 -0.09593129 0.037012808 0.06162906
-0.11949243 -0.3159068 -0.22184086 -0.34410733 -0.116190895 -0.25906947 -0.08576138 0.05845864
0.0814673 0.10828402 0.041644473 0.028635722 -0.16389422 -0.016115865 0.23470451 0.1360508
0.08583835 0.07373728 -0.15663078 -0.20931539 0.07289775 0.026850834 0.09238124 -0.09225291
0.049976006 0.03305359 -0.1800097 0.20133623 -0.036339387 -0.12792617 0.00904118 0.062385798
0.11023716 -0.1673138 -0.20168512 -0.18208818 -0.119286396 0.021082476 -0.23000288 0.033820175
0.12296677 0.20879884 -0.19144537 -0.12248683 0.041509476 -0.14217901 0.010124362 0.16539018
00000000: b578 78be 83f4 2abe 9eec f8bc 46f2 7a3c
00000010: db9f ab3d 9fd8 23be fe2a ab3d b1c8 02be
00000020: c18f b6bd d03e f83d 3e25 61be 076a 82be
00000030: 115a 783d 3769 8b3d a9ed c0bd 8235 463d
00000040: dd9a 863e c490 4cbd 2c61 1d3e 61a7 ebbc
00000050: a510 f93c 5482 04bd 398a c5bb 4fe3 933d
00000060: 81dd 0abe 05a5 883d 10ea 4e3e 08c7 68be
00000070: 3295 1bba 9576 6d3e 9d6a 44bd ac5b c93d
00000080: c37f 54bd 6b79 1b3e 3c37 0a3c 43a6 31be
00000090: 787d 8d3d 8d0a 5b3b 954b c03d 7103 373e
000000a0: 6b06 99bd f3d9 aebd dea5 193e fe2d 78be
000000b0: 1dd3 fdbd 7041 81bd e978 f5bd 5d1d bc3d
000000c0: ac19 91bd e138 10be 48aa 053d 97a7 e73d
000000d0: eb79 243e a975 913e f676 10be b2ca 39be
000000e0: 0cc4 053e 0afe 1a3e c382 ff3d 2386 083e
000000f0: 6217 c5bd 7222 07be 6385 9dbd b654 5c3e
00000100: 32a0 303e bc92 6fbe d64f 1ebe c554 1e3d
00000110: bf3f 4d3e 5e7b abbd 033f c2bd c9af 30be
00000120: f61a 3e3e 13d2 5abd 6f40 563e 792a 2d3d
00000130: f2ec 22be 188d 5ebe 5a15 fabc d67f 603d
00000140: cc7a 36be a5bc 1ebd 3e4c 68bd 08de e23d
00000150: c06d 3dbe b777 73bc f73e 453e 34cd 3dbe
00000160: f816 76bd bafa 5d3e 9dc6 16be e8ea ce3d
00000170: a7fb a3bd a077 c4bd be9a 173d c16e 7c3d
00000180: 72b8 f4bd 89be a1be 402a 63be d62e b0be
00000190: 7ef5 edbd c1a4 84be aaa3 afbd 5472 6f3d
000001a0: 54d8 a63d 03c4 dd3d 6593 2a3d 7695 ea3c
000001b0: e3d3 27be 6b05 84bc 6156 703e e750 0b3e
000001c0: 04cc af3d 9203 973d d263 20be c656 56be
000001d0: 6a4b 953d 48f6 db3c 6032 bd3d 18ef bcbd
000001e0: a4b3 4c3d 3463 073d 7654 38be 162b 4e3e
000001f0: 9cd8 14bd 14ff 02be 7521 143c 4088 7f3d
00000200: 05c4 e13d 4f54 2bbe 8b86 4ebe 5375 3abe
00000210: 6d4c f4bd 28b5 ac3c e085 6bbe 0687 0a3d
00000220: 00d6 fb3d 5dcf 553e 410a 44be 60da fabd
00000230: d705 2a3d 6097 11be a7e0 253c 0b5c 293e

sequential_6/conv2d_19/Conv2D f4 [64, 3, 3, 16]
-0.022959428 0.06076789 -0.11755896 -0.011948829 -0.0739062 0.038750928 0.019279318 -0.15220243
0.0016446153 -0.013918759 -0.13768362 -0.004254299 -0.2129406 0.10672915 -0.13543293 -0.12092504
-0.04554879 0.06820434 -0.12158359 0.0072835917 -0.1759829 -0.046259224 0.037990633 -0.11275293
-0.10890855 -0.024917424 -0.0047412445 -0.0089811925 -0.075542584 0.07862056 -0.07941761 0.027343487
0.060527626 -0.03846147 -0.100849584 -0.0075607887 -0.13574012 -0.10550907 0.09682339 -0.0693933
-0.10988947 -0.040663857 -0.12236581 -0.04676586 -0.18274571 0.10290954 -0.01697949 -0.020930639
-0.0030124765 0.08555468 0.0037150017 0.1356722 -0.1379754 0.16330765 0.15207848 -0.0828631
-0.19344209 -0.028494522 0.071488775 0.12836002 -0.013132471 0.064882815 -0.03727207 -0.029827036
-0.034326214 0.12252803 -0.060513053 0.07480555 -0.20722497 0.14197822 0.1039362 -0.116348475
-0.1342173 -0.020737018 0.010410222 -0.003825548 0.005861731 0.10402774 0.018517591 -0.16497788
0.044069264 0.11332736 -0.10512784 0.0377217 -0.20537475 -0.04064796 0.090214305 -0.055740982
-0.041239407 -0.06723851 -0.0061130067 0.027520115 -0.086760305 0.058028914 -0.0009082013 -0.12725513
0.019200346 0.19443694 0.042949703 0.15066674 -0.06680777 0.15737076 0.051026754 -0.08551884
-0.021831019 0.038497094 -0.1737462 0.030656155 -0.19998583 0.0900882 0.16878043 -0.016913978
0.005963803 0.025712332 0.027309196 0.11041209 0.031631667 0.23364069 0.09381967 -0.06095272
-0.13646814 0.056094848 -0.07377096 0.11437608 -0.15434965 0.052868996 0.08283931 0.016154137
0.11119502 0.12858589 0.11771481 0.082743935 -0.07577956 0.23805064 0.0026458367 -0.12208536
-0.13880372 0.058367096 -0.11988597 -0.013478385 -0.13228035 0.015397175 0.14471793 -0.08223597
0.14046328 0.15066381 -0.14454839 0.30528584 0.026721269 -0.029464807 0.17047864 0.044529352
-0.021028567 0.07103976 -0.045287613 0.03239999 0.038145643 0.12503937 -0.14990312 0.08032628
0.13585421 0.1108725 0.015099313 0.11980007 0.0067469417 -0.01841279 0.057403497 0.07171819
0.08714856 -0.014812943 -0.15353009 0.13316117 -0.08984682 -0.113586284 -0.20994534 0.00063253706
0.14203006 0.036144998 0.038815834 -0.036018725 0.00345394 -0.05135362 0.0254702 -0.01757327
-0.05590254 0.04767419 -0.14554864 0.052957423 -0.14048325 -0.1314188 -0.15636973 0.051782206
-0.03014914 0.019013762 0.058179557 0.018347189 -0.02905293 0.038738374 0.009085231 -0.10444047
-0.097733535 0.10663469 -0.08498933 -0.040286805 -0.021463249 -0.040073905 -0.12990478 0.02062455
-0.02682868 0.053272035 0.020083265 0.08839635 -0.0720538 0.018981948 0.04908714 -0.053705495
-0.03913967 0.08977857 -0.16184247 -0.021930499 0.113599405 -0.09114851 -0.096735954 0.03697387
0.09091128 0.0031811332 0.013741072 0.047061823 -0.08817587 -0.0047063883 0.100391276 0.010675579
-0.10493967 0.07928217 -0.16827592 0.084808305 -0.010907826 -0.054961134 -0.13531047 0.03840204
0.02476541 0.06675964 0.014331814 0.2303589 0.07654658 0.22642191 0.056838736 -0.03098019
-0.07680499 0.13381541 -0.09037738 0.061537784 -0.099369325 0.070158206 0.0034900308 -0.046632845
00000000: 6915 bcbc c0e7 783d c1c2 f0bd 05c5 43bc
00000010: 225c 97bd 4bb9 1e3d a9ef 9d3c f4da 1bbe
00000020: 2290 d73a 820b 64bc effc 0cbe a667 8bbb
00000030: 1a0d 5abe d094 da3d eeae 0abe 8ca7 f7bd
00000040: 5e91 3abd b8ae 8b3d d100 f9bd 32ab ee3b
00000050: dd34 34be 507a 3dbd 119c 1b3d 02eb e6bd
00000060: 720b dfbd a01f ccbc 715c 9bbb da25 13bc
00000070: 12b6 9abd d103 a13d b3a5 a2bd 73ff df3c
00000080: d1eb 773d c689 1dbd 3a8a cebd 7ec0 f7bb
00000090: 75ff 0abe 2415 d8bd 574b c63d 131e 8ebd
000000a0: bb0d e1bd 258f 26bd ed9a fabd 8f8d 3fbd
000000b0: b121 3bbe 3dc2 d23d 9218 8bbc bb76 abbc
000000c0: f86c 45bb 4b37 af3d 6377 733b a7ed 0a3e
000000d0: 6c49 0dbe 1f3a 273e 76ba 1b3e 21b4 a9bd
000000e0: af15 46be 586d e9bc b568 923d cf70 033e
000000f0: 9329 57bc 48e1 843d 99aa 18bd d457 f4bc
00000100: a599 0cbd faef fa3d 89dc 77bd a733 993d
00000110: c832 54be bd62 113e 81dc d43d 1c48 eebd
00000120: 4370 09be aee0 a9bc a38f 2a3c 0cb6 7abb
00000130: c313 c03b 7f0c d53d 34b2 973c f6ef 28be
00000140: f981 343d 2d18 e83d 444d d7bd 1282 1a3d
00000150: c24d 52be 7a7e 26bd 47c2 b83d a850 64bd
00000160: a7ea 28bd 58b4 89bd 9e4f c8bb dd71 e13c
00000170: 63af b1bd baaf 6d3d 5c14 6eba 2b4f 02be
00000180: 0b4a 9d3c 7a1a 473e 07ec 2f3d 6248 1a3e
00000190: 83d2 88bd cd25 213e 6e01 513d 8024 afbd
000001a0: f7d6 b2bc 21af 1d3d 86ea 31be 9e22 fb3c
000001b0: 16c9 4cbe 2a80 b83d c7d4 2c3e 2f8f 8abc
000001c0: 016c c33b aba2 d23c 89b7 df3c bc1f e23d
000001d0: 3590 013d 813f 6f3e 8724 c03d 8fa9 79bd
000001e0: 4ebe 0bbe b6c3 653d 3b15 97bd 023e ea3d
000001f0: d60d 1ebe 298d 583d a8a7 a93d ae55 843c
00000200: 37ba e33d 05ac 033e 7614 f13d a775 a93d
00000210: 5032 9bbd 8cc3 733e c665 2d3b e407 fabd
00000220: 9022 0ebe 5612 6f3d c786 f5bd 72d4 5cbc
00000230: 8074 07be 6f44 7c3c f030 143e 556b a8bd
00000240: 9bd5 0f3e 9d47 1a3e 7e04 14be 6d4e 9c3e
00000250: 90e6 da3c 2e60 f1bc f491 2e3e 6964 363d
00000260: 1a44 acbc 4b7d 913d 817f 39bd dab5 043d
00000270: 9b3e 1c3d 520a 003e 3480 19be 1b82 a43d
00000280: 5e1d 0b3e 1f11 e33d 1c63 773c bd59 f53d
00000290: 7315 dd3b 6bd6 96bc ee1f 6b3d fde0 923d
000002a0: f27a b23d fcb1 72bc fe36 1dbe 675b 083e
000002b0: 9c01 b8bd ed9f e8bd e9fb 56be d8d0 253a
000002c0: 5470 113e c70c 143d 5afd 1e3d 5f88 13bd
000002d0: 7f5b 623b 2c58 52bd e2a6 d03c d1f5 8fbc
000002e0: 10fa 64bd 0346 433d b40a 15be e2e9 583d
000002f0: d7da 0fbe a692 06be 631f 20be 9419 543d
00000300: 54fb f6bc c0c2 9b3c b04d 6e3d d84c 963c
00000310: 6900 eebc 21ac 1e3d 39da 143c e3e4 d5bd
00000320: 8528 c8bd 4a63 da3d e30e aebd c703 25bd
00000330: b2d3 afbc 8924 24bd c205 05be d1f4 a83c
00000340: d2c7 dbbc c733 5a3d a985 a43c 2509 b53d
00000350: f190 93bd 0880 9b3c 990f 493d 4bfa 5bbd
00000360: eb50 20bd d4dd b73d 08ba 25be 97a7 b3bc
00000370: cea6 e83d 12ac babd 801d c6bd ea71 173d
00000380: b12f ba3d 8f7a 503b 3c22 613c e6c3 403d
00000390: 8d95 b4bd 0c38 9abb f199 cd3d a0e8 2e3c
000003a0: 9cea d6bd b15e a23d 8650 2cbe faaf ad3d
000003b0: bdb6 32bc ed1e 61bd d48e 0abe 754b 1d3d
000003c0: d4e0 ca3c 47b9 883d fccf 6a3c 34e3 6b3e
000003d0: 74c4 9c3d 25db 673e bccf 683d 2bca fdbc
000003e0: ef4b 9dbd e806 093e c717 b9bd 0b0f 7c3d
000003f0: 2582 cbbd 1baf 8f3d 00b9 643b 1502 3fbd

sequential_6/conv2d_20/Conv2D f4 [32, 3, 3, 64]
0.0017055565 -0.03638879 0.09436359 0.012209544 -0.052807666 0.06538615 -0.078529865 0.056802973
0.06665264 -0.26834258 -0.07937014 -0.08688672 -0.14042348 0.015073209 -0.26904365 -0.087773375
0.025863122 -0.110390976 -0.12180609 -0.26691154 -0.19559975 -0.20824677 0.056758564 0.12126383
-0.048962247 0.0023908066 0.10882379 0.17759675 -0.07301047 -0.13030435 -0.035709515 -0.14567892
-0.07036181 -0.06911713 -0.11865283 -0.021286301 -0.13663119 0.063911915 0.14473258 0.016512128
-0.11077184 -0.10298606 0.03362986 0.007321333 -0.035024837 -0.23225695 -0.0586744 0.07897911
-0.0056909556 0.0193188 -0.067814715 -0.033621684 -0.1746352 -0.17549044 0.044326793 -0.06846211
0.03384332 0.029138042 0.063834004 -0.008545537 -0.0031396789 0.09656719 0.025065875 0.043755226
0.046647523 -0.074980445 -0.013617648 0.038158964 0.05215507 -0.0046056146 -0.08133457 0.0817079
0.0005445909 -0.23186564 -0.14436641 -0.057453237 -0.07976284 0.06154132 -0.13402057 -0.055565245
-0.043657526 -0.22679898 -0.044041168 -0.30554137 -0.14520384 -0.10430413 0.010299916 0.10044788
-0.01375381 0.05988645 0.11081096 0.15093908 0.04158176 -0.044622727 0.03785751 -0.119062334
-0.06575311 -0.03652273 -0.051082402 0.08905073 -0.06058748 -0.0050613503 0.109403126 -0.050202087
-0.054700397 -0.1519988 0.121569954 -0.12957908 -0.028332336 -0.22096573 -0.0072784 -0.047207695
-0.021033349 0.001254426 -0.034807313 -0.06537445 -0.21445946 -0.033337824 0.095904954 -0.039693873
-0.0286493 -0.02446709 -0.006790837 0.09664327 -0.034704782 0.016436053 0.0025636116 0.03304685
-0.08179028 -0.07719724 0.078417994 -0.068348184 -0.006798453 0.16668175 0.053264827 0.0761705
-0.060507305 -0.22036403 0.0007924945 -0.08000475 -0.14831483 -0.030248374 -0.14332 -0.026830222
-0.008672971 -0.1938452 -0.16570851 -0.27076122 -0.17346925 -0.23891605 0.019850144 0.1875322
0.026383145 0.09462944 0.08377926 0.11398688 -0.0017968635 -0.12886058 -0.05678945 -0.081047416
0.010353319 -0.052143667 -0.055575486 0.07223856 -0.15476389 0.010928695 0.08908303 -0.04094645
-0.06853642 -0.15936325 -0.032130115 0.0009366711 -0.038618617 -0.1605494 0.0058354563 -0.026828751
0.089723006 0.048143387 -0.100789756 -0.0786553 -0.24627824 -0.010355707 0.014499116 -0.030361718
-0.06252173 0.021366501 0.04651719 0.10391567 0.010305331 0.08470551 -0.03254864 0.08095437
0.024155002 0.15083174 0.10906657 -0.032129847 -0.16844812 -0.11186527 -0.07565796 0.100099415
-0.035046697 -0.11950557 -0.11157406 -0.07272667 0.029830664 0.12014976 -0.21170138 0.0042112325
-0.05345572 -0.024005715 -0.056128982 0.016493967 -0.08595971 -0.041444547 -0.042491563 0.046921123
0.009278434 0.12136263 -0.0039435537 0.039608445 0.19283247 -0.02072023 -0.03909906 0.06441908
0.06562842 0.00684126 -0.09226872 -0.00803256 0.035789613 -0.034793895 0.08051847 -0.056920063
0.03752364 -0.15846282 0.13492483 -0.20192398 0.13465513 0.010193421 -0.08372607 -0.054863743
0.050794315 -0.08479802 0.03080134 -0.017284483 -0.06704675 0.07880994 0.03321914 -0.027313283
-0.10560546 -0.061509844 0.062101938 -0.12497783 -0.0867346 -0.011550226 0.022827176 -0.07131057
00000000: fb8c df3a 690c 15bd b341 c13d 8a0a 483c
00000010: da4c 58bd 2ce9 853d 44d4 a0bd 3caa 683d
00000020: 2e81 883d 3364 89be d08c a2bd aaf1 b1bd
00000030: 2ccb 0fbe 9ff5 763c 17c0 89be 87c2 b3bd
00000040: e6de d33c aa14 e2bd 7975 f9bd a1a8 88be
00000050: 4d4b 48be a43e 55be ab7b 683d 2c59 f83d
00000060: a38c 48bd 14af 1c3b 02df de3d ecdb 353e
00000070: 8386 95bd 816e 05be 2444 12bd db2c 15be
00000080: da19 90bd 488d 8dbd 4100 f3bd 9c60 aebc
00000090: 0ce9 0bbe 40e4 823d c734 143e 7144 873c
000000a0: 59dc e2bd 5bea d2bd 77bf 093d cbe7 ef3b
000000b0: 3476 0fbd c4d4 6dbe 9154 70bd cdbf a13d
000000c0: 327b babb 7642 9e3c 71e2 8abd e4b6 09bd
000000d0: 92d3 32be c4b3 33be 0390 353d dd35 8cbd
000000e0: 4b9f 0a3d e7b2 ee3c 67bb 823d 9402 0cbc
000000f0: 12c3 4dbb 05c5 c53d f356 cd3c ae38 333d
00000100: 7911 3f3d 598f 99bd 8e1c 5fbc 934c 1c3d
00000110: 8ea0 553d b2ea 96bb bd92 a6bd 7956 a73d
00000120: e0c2 0e3a 306e 6dbe cad4 13be 1654 6bbd
00000130: b35a a3bd c012 7c3d b03c 09be 6298 63bd
00000140: 3cd2 32bd fe3d 68be 8364 34bd eb6f 9cbe
00000150: 51b0 14be 679d d5bd fbc0 283c 9eb7 cd3d
00000160: a957 61bc 7f4b 753d dbf0 e23d c68f 1a3e
00000170: a351 2a3d 52c6 36bd 7a10 1b3d f4d6 f3bd
00000180: 91a9 86bd dc98 15bd c83b 51bd 3b60 b63d
00000190: 942a 78bd afd9 a5bb bf0e e03d b4a0 4dbd
000001a0: 860d 60bd 93a5 1bbe abf9 f83d 61b0 04be
000001b0: 3719 e8bc d744 62be a57f eebb db5c 41bd
000001c0: 214e acbc 8d6b a43a 1d92 0ebd 0ae3 85bd
000001d0: 439b 5bbe 3e8d 08bd d169 c43d 0b96 22bd
000001e0: f0b1 eabc 356f c8bc ab85 debb e8ec c53d
000001f0: 9a26 0ebd e7a4 863c 4402 283b 225c 073d
00000200: aa81 a7bd 9619 9ebd 9d99 a03d 22fa 8bbd
00000210: 8fc5 debb 9fae 2a3e 382c 5a3d 47ff 9b3d
00000220: 82d6 77bd 1ca7 61be 68bf 4f3a 88d9 a3bd
00000230: d8df 17be 70cb f7bc 7ac2 12be 0ecb dbbc
00000240: 1419 0ebc 5b7f 46be 7eaf 29be 37a1 8abe
00000250: eca1 31be 69a6 74be c59c a23c 7108 403e
00000260: 7721 d83c 14cd c13d 7694 ab3d f471 e93d
00000270: bc84 ebba 07f4 03be 0e9c 68bd 30fc a5bd
00000280: f8a0 293c 9994 55bd 1fa3 63bd cff1 933d
00000290: 6d7a 1ebe 450e 333c 2a71 b63d 77b7 27bd
000002a0: d35c 8cbd 1f30 23be de9a 03bd ef8a 753a
000002b0: 8e2e 1ebd 1067 24be 5b37 bf3b f8c7 dbbc
000002c0: b2c0 b73d 0032 453d dc6a cebd 0816 a1bd
000002d0: 5d30 7cbe fcaa 29bc b38d 6d3c 23b9 f8bc
000002e0: 650b 80bd cd08 af3c cf88 3e3d bdd1 d43d
000002f0: b1d7 283c 157a ad3d b951 05bd 68cb a53d
00000300: b6e0 c53c a373 1a3e 4b5e df3d 969a 03bd
00000310: aa7d 2cbe 9e19 e5bd 8ff2 9abd ec00 cd3d
00000320: 208d 0fbd 56bf f4bd f180 e4bd b8f1 94bd
00000330: 705f f43c 1411 f63d 3fc8 58be 61fe 893b
00000340: 63f4 5abd a2a7 c4bc 81e7 65bd 5b1e 873c
00000350: a50b b0bd c2c1 29bd a20b 2ebd 5d30 403d
00000360: 9304 183c f88c f83d ed38 81bb 773c 223d
00000370: e075 453e 79bd a9bc 5626 20bd 27ee 833d
00000380: 3168 863d a62c e03b 62f7 bcbd 009b 03bc
00000390: 2198 123d 0b84 0ebd dee6 a43d 0325 69bd
000003a0: 63b2 193d 1444 22be bc29 0a3e 29c5 4ebe
000003b0: 09e3 093e 4e02 273c 9378 abbd ceb8 60bd
000003c0: b30d 503d 96aa adbd 1753 fc3c 3098 8dbc
000003d0: ce4f 89bd 1b67 a13d cb10 083d 1bc0 dfbc
000003e0: ad47 d8bd bff1 7bbd 9a5e 7e3d 60f4 ffbd
000003f0: e9a1 b1bd 293d 3dbc 0f00 bb3c 470b 92bd
